clip_images/CNN_model_best_model.pt (torch, 568007 bytes, 10 tensors)

conv1.weight f4 [10, 1, 3, 3]
-0.1938513 0.2186348 0.24405318 0.27043396 0.0042137476 -0.32483587 -0.028602825 -0.33337075
0.10104187 -0.09367032 -0.151011 -0.29900867 -0.2497 0.08768577 -0.17893137 -0.18311954
-0.31175113 0.20397599 0.31737873 -0.13273911 -0.044668157 -0.23927785 -0.069194674 -0.25993088
-0.12038428 -0.22926922 -0.08391743 -0.1704706 0.17657432 0.22938982 -0.31870484 0.042039115
-0.22723939 0.071256645 0.055206258 0.16540992 -0.27180234 0.24510138 -0.27642003 0.13492307
-0.02681082 -0.0023562561 -0.21152811 0.18591164 -0.0665851 -0.001717891 0.108448535 0.018424036
0.07971085 -0.27612785 0.091896325 0.21561036 -0.23484664 -0.1236073 -0.16989349 -0.08153427
-0.2829666 -0.10651187 -0.31655115 -0.059690475 -0.13545471 -0.11605942 -0.22328782 -0.18692347
-0.10939891 0.15961076 0.27513582 -0.19307357 -0.17061669 0.20129628 0.23162217 -0.07492684
-0.14814003 -0.17327347 -0.008875411 -0.28535363 0.053775676 0.22139068 0.26294437 -0.22032383
0.3097574 -0.1124977 -0.13415538 -0.31445926 0.14265518 -0.27210158 -0.17518853 -0.30570528
-0.06950705 0.17056046
00000000: f580 46be cde1 5f3e 14e9 793e 5276 8a3e
00000010: 7a13 8a3b e350 a6be 7950 eabc 92af aabe
00000020: 0aef ce3d 3ad6 bfbd a1a2 1abe aa17 99be
00000030: 5bb1 7fbe 9994 b33d c939 37be b083 3bbe
00000040: d89d 9fbe 15df 503e 777f a23e c3ec 07be
00000050: f5f5 36bd 4105 75be f0b5 8dbd a915 85be
00000060: 098c f6bd 8dc5 6abe e7dc abbd d88f 2ebe
00000070: e6cf 343e 2ae5 6a3e 482d a3be 3531 2c3d
00000080: 71b1 68be 01ef 913d f51f 623d 3861 293e
00000090: ad29 8bbe dbfb 7a3e ed86 8dbe 4629 0a3e
000000a0: 5da2 dbbc 6b6b 1abb d39a 58be 9f5f 3e3e
000000b0: c55d 88bd db2a e1ba 441a de3d 01ee 963c
000000c0: 713f a33d a160 8dbe 2434 bc3d f6c8 5c3e
000000d0: a37b 70be d325 fdbd 8ff8 2dbe 70fb a6bd
000000e0: 00e1 90be e522 dabd fe12 a2be 007e 74bd
000000f0: a4b4 0abe 90b0 edbd 90a5 64be de68 3fbe
00000100: 890c e0bd 0171 233e 9ade 8c3e 14b5 45be
00000110: 24b6 2ebe 9d20 4e3e 5d2e 6d3e 3e73 99bd
00000120: 05b2 17be 9a6e 31be 2c6a 11bc df19 92be
00000130: e243 5c3d 3db4 623e a5a0 863e 929c 61be
00000140: 8698 9e3e 3265 e6bd 0760 09be ce00 a1be
00000150: 3314 123e e650 8bbe 9f64 33be 6785 9cbe
00000160: b659 8ebd 67a7 2e3e

conv1.bias f4 [10]
0.21966572 0.089737184 0.04212318 0.26374176 0.035528425 -0.034985777 0.2503829 -0.030715637
0.2962799 0.30564064
00000000: 0df0 603e 21c8 b73d 5b89 2c3d 2909 873e
00000010: 4186 113d 3f4d 0fbd 3032 803e 5c9f fbbc
00000020: 00b2 973e ee7c 9c3e

conv2.weight f4 [20, 10, 4, 4]
-0.016481759 0.017462155 -0.055664346 0.052732866 0.026427492 -0.017469378 -0.008624346 -0.001428198
0.058913928 0.04492259 -0.06951206 0.072800115 0.037377577 0.0465253 -0.00088417396 -0.006224882
-0.07530184 -0.018658662 0.076562524 0.061250605 -0.033927105 0.060859066 -0.056446437 -0.035770748
-0.054008093 0.021996813 -0.05018701 0.0704502 0.015554777 0.044240065 0.019019913 0.0076597263
0.00783952 -0.043499857 -0.00560015 0.035931878 0.02299552 0.059100583 -0.038756073 0.008025053
0.07380839 0.04726316 0.010058226 0.009281839 -0.009800473 -0.045272794 -0.052496374 -0.06773644
-0.05222117 0.004416515 -0.044230964 0.027485445 -0.018204462 -0.06590164 0.029262101 0.030542511
-0.029713249 -0.0013978941 -0.06209983 0.011323099 0.07273084 0.023332275 -0.048605554 -0.06663734
0.04035958 -0.079631396 -0.060422055 0.03954239 0.024408313 -0.003949014 0.015353578 -0.017819686
-0.0021101758 0.057862986 0.007068788 0.04675899 -0.07100576 -0.021714339 0.007255649 -0.06683778
0.03731582 0.049767144 -0.036069132 -0.0027329964 -0.07295337 0.046591654 0.00092822534 0.047683727
0.037469216 -0.058194928 0.046214625 -0.0597998 0.07049417 0.021280142 -0.0032257545 0.022434633
0.05307262 0.071399465 -0.013126798 0.038556438 0.040833887 0.051005866 0.031302325 -0.034364913
0.027902756 0.039618336 -0.012291822 0.013758746 0.0024858997 0.005484312 -0.017499313 -0.06401779
-0.052386303 -0.09262415 -0.037366122 -0.04604017 -0.0009818778 0.031410187 -0.112936825 -0.097922556
-0.08789954 -0.0608765 -0.034181412 -0.0318515 0.027523924 -0.03286142 0.011884703 0.014169801
-0.015516222 -0.011533084 0.018871082 0.012838211 -0.07823041 0.061986566 -0.0058860844 0.0179463
0.0067199734 0.06618219 -0.003710748 -0.05170024 -0.052900646 0.027994834 -0.02108005 -0.06821702
-0.07590478 0.0122164395 -0.024327364 -0.037559867 -0.06649557 -0.020229273 -0.044578426 0.0016557185
0.037543267 0.014962191 0.02062904 -0.029210577 -0.0622361 -0.0093594855 -0.069589965 -0.00870555
-0.030469451 -0.028773133 -0.039579134 -0.066150516 -0.0054626055 -0.0394579 -0.047936052 0.04606886
0.028925499 -0.051073372 0.06191989 -0.069247074 -0.017781002 0.06050001 -0.07072951 -0.004781338
-0.026442174 -0.016128711 0.0064698095 0.002405074 0.072737955 0.01361405 0.012684294 -0.057259943
0.052508123 -0.049535815 -0.043190468 -0.0382374 0.074809015 -0.07004447 -0.023694705 -0.06291023
-0.03007486 0.029261988 0.017173845 -0.0011682094 0.030348198 0.025178477 -0.01351532 0.07366058
0.017113734 0.0028022386 0.019574516 0.014080764 -0.039968416 -0.016774848 0.070569135 -0.024246635
0.027962467 0.049371194 0.049712516 -0.082042314 -0.07683015 0.04039044 -0.014378951 0.018005116
-0.07909283 0.06185309 -0.06234263 0.0047743903 -0.016015466 -0.047138456 0.06035823 -0.06326197
0.050079215 -0.053617954 -0.032140113 -0.01028969 0.071664385 0.0008336056 0.04262388 -0.070123725
0.06880704 0.030807493 0.049332935 0.021528363 0.05935681 0.048249327 -0.04969645 0.050138664
0.021164075 0.047902163 -0.034360293 0.004885301 -0.059776414 0.051823314 -0.06810041 0.05430079
-0.03435294 -0.07766088 -0.032283027 0.076646514 0.028896574 0.03146723 0.040892858 0.024865294
00000000: c104 87bc cb0c 8f3c 4c00 64bd 6bfe 573d
00000010: 787e d83c f11b 8fbc 214d 0dbc 5f32 bbba
00000020: bb4f 713d c000 383d 575c 8ebd 3a18 953d
00000030: 3b19 193d 5091 3e3d e9c7 67ba 18fa cbbb
00000040: da37 9abd 0dda 98bc d0cc 9c3d eae1 7a3d
00000050: 26f7 0abd 5b47 793d 6134 67bd 5984 12bd
00000060: 9737 5dbd a932 b43c e590 4dbd 3248 903d
00000070: 77d9 7e3c 1235 353d a6cf 9b3c 71fe fa3b
00000080: 5571 003c e82c 32bd 7781 b7bb 4e2d 133d
00000090: 1a61 bc3c 7413 723d b0be 1ebd 837b 033c
000000a0: da28 973d 0497 413d 42cb 243c db12 183c
000000b0: 2a92 20bc f76f 39bd 7006 57bd 67b9 8abd
000000c0: dee5 55bd 6ab8 903b 872b 35bd 2829 e13c
000000d0: 8621 95bc 70f7 86bd 13b7 ef3c 4a34 fa3c
000000e0: 3369 f3bc 8b39 b7ba 645c 7ebd 8584 393c
000000f0: e8f3 943d 5423 bf3c 9e16 47bd 2879 88bd
00000100: 1650 253d c915 a3bd 1e7d 77bd 33f7 213d
00000110: f1f3 c73c bb66 81bb 938d 7b3c 97fa 91bc
00000120: e04a 0abb bd01 6d3d 4ba1 e73b 5b86 3f3d
00000130: 786b 91bd 45e2 b1bc ccc0 ed3b 3fe2 88bd
00000140: 79d8 183d a2d8 4b3d 3abd 13bd 121c 33bb
00000150: 9468 95bd e4d6 3e3d 2654 733a 0350 433d
00000160: 5279 193d ce5d 6ebd 8c4b 3d3d a3f0 74bd
00000170: 3f5f 903d b153 ae3c 2e67 53bb d6c8 b73c
00000180: ad62 593d e239 923d c811 57bc 5bed 1d3d
00000190: 6f41 273d 87eb 503d de36 003d 39c2 0cbd
000001a0: 5294 e43c d646 223d a363 49bc 5d6c 613c
000001b0: 7aea 223b beb5 b33b b85a 8fbc c21b 83bd
000001c0: 0593 56bd bbb1 bdbd 380d 19bd 9e94 3cbd
000001d0: 5ab2 80ba f8a7 003d 6c4b e7bd 9f8b c8bd
000001e0: ad04 b4bd a359 79bd cf01 0cbd b876 02bd
000001f0: da79 e13c b299 06bd 0fb8 423c 7428 683c
00000200: c137 7ebc 43f5 3cbc 8797 9a3c 5c57 523c
00000210: 4437 a0bd a0e5 7d3d 0ee0 c0bb 1e04 933c
00000220: 3933 dc3b 878a 873d 0530 73bb a1c3 53bd
00000230: 59ae 58bd 6c55 e53c 12b0 acbc 5db5 8bbd
00000240: f773 9bbd 7627 483c 2e4a c7bc 60d8 19bd
00000250: d42e 88bd dcb7 a5bc de97 36bd b204 d93a
00000260: f8c6 193d fa23 753c 3cfe a83c 054b efbc
00000270: 48eb 7ebd 8758 19bc 2f85 8ebd b9a1 0ebc
00000280: 129b f9bc a2b5 ebbc bb1d 22bd ec79 87bd
00000290: a8ff b2bb 9b9e 21bd 9858 44bd b3b2 3c3d
000002a0: 2bf5 ec3c 5032 51bd b69f 7d3d 69d1 8dbd
000002b0: 77a9 91bc dcce 773d a2da 90bd c5ac 9cbb
000002c0: 429d d8bc 5c20 84bc b200 d43b 729e 1d3b
000002d0: a3f7 943d 770d 5f3c c9d1 4f3c 6789 6abd
000002e0: c212 573d 11e6 4abd 7de8 30bd d29e 1cbd
000002f0: 7835 993d 7a73 8fbd 661b c2bc 14d7 80bd
00000300: 8e5f f6bc d6b6 ef3c 2ab0 8c3c 9a1e 99ba
00000310: c99c f83c 1843 ce3c 5c6f 5dbc 5cdb 963d
00000320: 1a32 8c3c c3a5 373b bc5a a03c 01b3 663c
00000330: ecb5 23bd 686b 89bc 8d86 903d e1a0 c6bc
00000340: 8b11 e53c 7339 4a3d 5a9f 4b3d cd05 a8bd
00000350: 2059 9dbd 7270 253d b195 6bbc 777f 933c
00000360: 6cfb a1bd aa59 7d3d fc5a 7fbd 7d72 9c3b
00000370: de32 83bc 4114 41bd 313a 773d 7e8f 81bd
00000380: dd1f 4d3d 809e 5bbd 5aa5 03bd 1796 28bc
00000390: c7c4 923d 5386 5a3a 6196 2e3d 079d 8fbd
000003a0: b5ea 8c3d ff5f fc3c 5511 4a3d 405c b03c
000003b0: 2020 733d 16a1 453d 818e 4bbd 335e 4d3d
000003c0: 4860 ad3c 0f35 443d 61bd 0cbd e014 a03b
000003d0: 1dd8 74bd af44 543d 3a78 8bbd 816a 5e3d
000003e0: abb5 0cbd ab0c 9fbd 353b 04bd d9f8 9c3d
000003f0: 82b8 ec3c c8e3 003d 457f 273d 4db2 cb3c

conv2.bias f4 [20]
-0.011006717 -0.051857274 -0.05579527 0.051263083 0.035021618 0.07806146 0.07515787 0.07512006
0.042289887 0.030165615 -0.042063694 4.010059e-05 0.016003495 -0.033012234 0.02760488 0.07678626
0.010675923 0.06945877 -0.030735705 0.043987855
00000000: 8455 34bc 4b68 54bd 9589 64bd 3df9 513d
00000010: d472 0f3d b0de 9f3d 5fec 993d 8cd8 993d
00000020: 2938 2d3d e11d f73c fb4a 2cbd ae31 2838
00000030: c319 833c d637 07bd a123 e23c 1d42 9d3d
00000040: 11ea 2e3c 6640 8e3d 72c9 fbbc 9c2c 343d

fc1.weight f4 [250, 500]
-0.037788782 -0.030844562 0.025517395 -0.04401523 0.011127447 0.043835573 0.027347423 -0.012210067
0.032939512 0.0335646 0.0023378138 -0.007108206 -0.04423323 -0.032617696 -0.021204337 0.025752386
-0.0011457354 0.029253857 -0.016553411 0.014162298 0.020593386 -0.006246757 -0.024214054 -0.018869322
0.0058430475 0.036292415 0.0398025 0.010090283 -0.0157091 0.03248056 0.038375854 -0.011377133
-0.035383802 0.02613547 0.010154294 0.014645383 -0.009165211 -0.0007349432 -0.0152440965 0.03771386
-0.030148253 0.0033325101 0.01668769 -0.019745512 0.0027570473 0.014897551 0.028566824 -0.039704837
0.04327043 0.022169113 0.012522368 -0.0044445107 0.013078694 0.020252883 0.01861297 -0.02813451
-0.016383128 0.009493611 0.0015318196 0.018708076 -0.037642546 -0.012003816 0.034818064 0.025491849
-0.0012823894 -0.043315805 0.01367217 -0.024521662 0.0343113 -0.037119962 -0.014617821 -0.036278076
0.01815008 -0.013868046 0.02154808 0.039507058 0.040602848 0.037988394 0.015821908 -0.028798161
-0.034393568 0.0161303 -0.014686502 0.0040439153 0.024943555 -0.023772748 0.034925222 -0.044875585
-0.010380417 -0.0198993 0.04071562 -0.0075267325 -0.037014205 -0.029288024 -0.0036035455 0.020478785
-0.04092194 0.025739113 0.024681503 -0.019073509 0.014085287 -0.04105384 0.01619071 -0.042241
-0.04344212 0.0057095177 0.0044382494 -0.04041811 -0.006668225 -0.030982826 -0.014902388 0.02256074
0.0350562 0.025830464 -0.011429901 -0.036683835 -0.012351807 0.012695641 -0.0074925134 -0.0008388585
0.028444866 -0.016750349 -0.01362746 -0.018934244 -0.024121245 -0.00085360237 0.039679367 0.034716666
0.0008134731 -0.018165741 -0.001363779 -0.009982304 -0.01981771 -0.029462619 -0.011717284 -0.034429863
0.0023768293 -0.0050851586 0.008003887 -0.041970227 -0.014208295 0.04265599 0.037054755 -0.03427504
0.01608917 -0.0032965722 -0.011599385 -0.023718055 -0.04304512 0.013767735 -0.039249558 0.0026092872
-0.005426918 0.03831948 0.021565517 -0.02204613 0.013913399 -0.04471167 -0.02326723 0.0130753005
0.013178997 0.0036368826 -0.009891516 -0.02453544 -0.027368449 0.043460034 0.007745354 -0.039256368
0.016844943 0.014364907 0.012182724 0.027921114 -0.008712087 -0.03332701 0.028867519 -0.013343111
-0.022836618 -0.015312295 0.034199607 0.04045209 0.022400143 -0.011554849 0.013139163 -0.02577176
-0.027132504 -0.02408788 -0.04121985 0.0018232972 0.0055095255 0.026566554 0.015978552 0.018523872
-0.0236345 0.0067043602 -0.017140383 -0.034689758 0.028253308 0.023430297 -0.026575662 0.02956043
-0.043785542 0.005815872 0.0005351084 -0.03015674 -0.041906115 0.007224548 0.020254554 -0.038365215
-0.04174483 -0.03558935 -0.039362617 0.022391027 0.010745238 0.009151546 -0.016602166 -0.035730474
-0.025890287 0.030602865 0.027557265 -0.013624212 -0.03437607 0.027468389 0.030432183 0.020867994
-0.03929845 0.02747178 0.030811813 -0.012303184 -0.005233305 -0.019562293 -0.01200833 0.00047737962
-0.0025955336 -0.021822924 0.0070804968 0.023668647 -0.023026759 -0.016843608 -0.014806146 -0.03881191
-0.016356766 -0.017550755 -0.016616898 -0.011418525 -0.018320333 -0.042610683 -0.02094315 0.037899885
-0.002070716 0.039395418 0.03639155 0.0067210756 -0.0008542558 0.04021737 0.03816784 0.0119761545
00000000: 69c8 1abd bcad fcbc db09 d13c 5049 34bd
00000010: e54f 363c ee8c 333d b407 e03c bc0c 48bc
00000020: 95eb 063d 097b 093d 0236 193b f4eb e8bb
00000030: e72d 35bd 229a 05bd b8b4 adbc abf6 d23c
00000040: 802c 96ba c9a5 ef3c 059b 87bc fc08 683c
00000050: 76b3 a83c 99b1 ccbb 8d5c c6bc d693 9abc
00000060: 0977 bf3b 5ba7 143d f207 233d b751 253c
00000070: 5fb0 80bc 560a 053d 0030 1d3d 2867 3abc
00000080: 9bee 10bd 0e1a d63c 325e 263c 30f3 6f3c
00000090: ae29 16bc 34a9 40ba 60c2 79bc d979 1a3d
000000a0: 78f9 f6bc 3e66 5a3b 9fb4 883c 57c1 a1bc
000000b0: 94af 343b dc14 743c f904 ea3c 8aa1 22bd
000000c0: 563c 313d 009c b53c 9e2a 4d3c 42a3 91bb
000000d0: 0548 563c 60e9 a53c 3a7a 983c 587a e6bc
000000e0: e935 86bc 178b 1b3c 56c7 c83a ae41 993c
000000f0: 122f 1abd a7ab 44bc 639d 0e3d 48d4 d03c
00000100: d915 a8ba ea6b 31bd 3d01 603c a7e1 c8bc
00000110: 018a 0c3d 1a0b 18bd 967f 6fbc 5298 14bd
00000120: 7aaf 943c cd36 63bc 9985 b03c 27d2 213d
00000130: 2c4f 263d b899 1b3d f29c 813c 1fea ebbc
00000140: 45e0 0cbd b123 843c a79f 70bc d282 843b
00000150: 6d56 cc3c 11bf c2bc c00d 0f3d 76cf 37bd
00000160: a012 2abc db03 a3bc 6cc5 263d cfa2 f6bb
00000170: 359c 17bd 70ed efbc 7629 6cbb 20c3 a73c
00000180: c49d 27bd d5da d23c dd30 ca3c 0c40 9cbc
00000190: fac5 663c 1228 28bd 61a2 843c e604 2dbd
000001a0: 5df0 31bd e816 bb3b bc6e 913b 768d 25bd
000001b0: 2081 dabb b2cf fdbc 2529 74bc 4dd1 b83c
000001c0: 1797 0f3d 699a d33c 7b44 3bbc ca41 16bd
000001d0: 3c5f 4abc 6101 503c c283 f5bb d7e6 5bba
000001e0: 3505 e93c 0738 89bc b645 5fbc fd1b 9bbc
000001f0: eb99 c5bc 49c4 5fba d586 223d 1033 0e3d
00000200: 413f 553a 52d0 94bc d4c0 b2ba d18c 23bc
00000210: c058 a2bc 975b f1bc daf9 3fbc 5406 0dbd
00000220: 94c4 1b3b 67a1 a6bb bc22 033c f9e8 2bbd
00000230: e9c9 68bc 0cb8 2e3d bac6 173d fc63 0cbd
00000240: 6fcd 833c 4e0b 58bb 590b 3ebc 5e4c c2bc
00000250: 1450 30bd 1192 613c 25c4 20bd 9300 2b3b
00000260: 4ad4 b1bb e3f4 1c3d 2baa b03c 169a b4bc
00000270: 06f5 633c 9623 37bd eb9a bebc c939 563c
00000280: b8ec 573c c458 6e3b 0610 22bc 8cfe c8bc
00000290: cc33 e0bc 2603 323d bdcc fd3b 49cb 20bd
000002a0: 68fe 893c c95a 6b3c 0c9a 473c d2ba e43c
000002b0: 24bd 0ebc e781 08bd 937b ec3c 109d 5abc
000002c0: dc13 bbbc 6ce0 7abc e314 0c3d 17b1 253d
000002d0: 8180 b73c 8d50 3dbc a545 573c 4c1f d3bc
000002e0: fc44 debc f253 c5bc 25d6 28bd b4fb ee3a
000002f0: 4089 b43b 1aa2 d93c 74e5 823c 60bf 973c
00000300: 249d c1bc 40b0 db3b fd69 8cbc d916 0ebd
00000310: 7b73 e73c e5f0 bf3c 34b5 d9bc b728 f23c
00000320: 7858 33bd 1293 be3b 8446 0c3a 450b f7bc
00000330: bfa5 2bbd e7bb ec3b e1ec a53c d824 1dbd
00000340: a0fc 2abd 23c6 11bd b23a 21bd 636d b73c
00000350: cb0c 303c 5ef0 153c 4401 88bc 1e5a 12bd
00000360: de17 d4bc dcb2 fa3c c6bf e13c 1638 5fbc
00000370: eccd 0cbd 6305 e13c ea4c f93c 5bf3 aa3c
00000380: 69f7 20bd 800c e13c 0e69 fc3c 4b93 49bc
00000390: 257c abbb 1a41 a0bc 96be 44bc cf48 fa39
000003a0: d419 2abb fdc5 b2bc 8303 e83b c0e4 c13c
000003b0: 9da2 bcbc 9bfb 89bc 7a95 72bc 3df9 1ebd
000003c0: a0fe 85bc 9ac6 8fbc 2920 88bc c414 3bbc
000003d0: 8614 96bc 8a88 2ebd f890 abbc e93c 1b3d
000003e0: d9b4 07bb 175d 213d 4e0f 153d 783c dc3b
000003f0: 23f0 5fba f8ba 243d e255 1c3d a237 443c

fc1.bias f4 [250]
-0.003784796 -0.014332974 0.005217339 -0.02001951 0.03343796 0.028380012 0.013621443 0.0012297212
-0.0043036113 -0.032248177 -0.005456413 0.0021331261 -0.03996882 0.038798645 0.045015287 0.01303347
-0.03277923 -0.019508438 0.016118051 -0.01338397 0.0055789836 -0.004874918 -0.004374128 -0.008182936
-0.001055207 0.01823252 0.04160086 0.02386538 -0.024643298 -0.041248094 0.013838569 -0.0015732578
-0.030009678 0.043480314 0.0059207603 0.006536673 -0.012042658 -0.044981778 -0.020805903 0.017666308
0.030711776 0.040528134 0.0054586693 0.007934057 0.0082768565 -0.031803176 -0.03647071 -0.013763378
-0.04225906 0.00053385267 0.01642809 0.0021594604 -0.003637229 0.027514633 0.00784832 -0.022972265
-0.008996109 -0.0072842613 -0.040633105 0.03321867 -0.015691385 -0.038344085 0.0062084324 -0.021736853
0.038427945 -0.016264662 0.029323712 -0.012615776 -0.033824064 -0.0348148 0.0007473164 0.03373356
0.0325384 -0.04089761 -0.025667794 -0.04123846 0.020757433 -0.007607368 -0.007798914 -0.024208196
-0.006728758 -0.045980465 -0.024851758 -0.027498519 -0.0067130574 0.032963015 0.024020862 -0.03217897
-0.018333523 0.00482336 0.0345938 0.021208927 -0.039321665 0.018262165 0.043746423 -0.009174641
-0.019071665 -0.026748268 0.012406932 0.0031583982 -0.028806258 0.010623191 0.011952002 0.005901345
-0.027958022 0.040437624 0.0013507382 0.01064965 -0.039119307 0.008129032 -0.006276566 0.025587866
-0.0353949 0.032817114 0.016143551 -0.015392769 -0.0044664196 0.0029372766 -0.003653442 0.030057978
-0.022692896 0.026110532 0.0049980683 0.03155585 0.012160262 0.020153617 0.040776383 0.00067594653
0.011419624 0.010893936 0.023497975 -0.029918512 -0.01396606 -0.022127183 0.023109237 0.009225602
-0.041467 -0.023966081 -0.012488663 0.031979382 0.013190871 -0.04346256 0.036384404 0.045586042
-0.017348642 0.013769446 -0.016606351 0.023825306 0.033377424 -0.02092301 0.03273973 -0.042787403
-0.03345438 -0.011489185 -0.02070199 0.02692072 -0.0001586846 -0.03410869 -0.02837271 -0.04054811
-0.02753277 -0.038829558 -0.0076562553 0.021548122 -0.005600945 -0.015322302 -0.019256609 0.019225594
0.0016757441 0.0129902065 -0.018527828 -0.031059086 0.026070502 -0.00019361898 -0.031914167 -0.008107492
0.0029067611 -0.0036576735 0.0034279458 -0.03535401 -0.020931188 -0.041448843 0.016900752 0.026525527
0.0025398678 -0.028634148 0.023141177 0.03352817 0.02763316 0.006503472 -0.007214009 -0.007122992
-0.023891069 0.040522628 0.025229724 0.00319396 -0.0071720923 0.004372 0.00052544463 -0.017648043
0.016257603 -0.018282574 0.03506942 -0.004587095 -0.007276597 -0.031105116 0.026338402 0.008530456
0.030210076 -0.0421181 -0.037869986 0.008898004 0.020662436 0.027636796 -0.028481433 -0.042207543
0.008644141 -0.018711297 0.005032698 -0.010774616 -0.03846407 0.01876442 0.020560488 0.016503198
0.021533968 -0.010307905 0.0063719386 -0.013185005 -0.013655878 -0.024181731 0.019054336 0.022804195
-0.01997381 0.004879167 -0.04374443 -0.019779084 0.02311921 -0.031029703 0.033906635 0.0078431945
0.03046524 0.032570507 -0.031089263 -0.0145223 0.02434428 0.020707889 0.016839135 -0.00030406803
-0.030735133 -0.013960562
00000000: 570a 78bb dad4 6abc 36f6 aa3b f5ff a3bc
00000010: 3ef6 083d 337d e83c 792c 5f3c 992e a13a
00000020: 4f05 8dbb aa16 04bd b6cb b2bb ebcb 0b3b
00000030: 58b6 23bd 54eb 1e3d f361 383d 568a 553c
00000040: 8443 06bd 29d0 9fbc 010a 843c 7048 5bbc
00000050: e8cf b63b c7bd 9fbb d854 8fbb b911 06bc
00000060: df4e 8aba 5e5c 953c aa65 2a3d 5481 c33c
00000070: bee0 c9bc c3f3 28bd 2abb 623c c635 ceba
00000080: dbd6 f5bc 6a18 323d f002 c23b 9631 d63b
00000090: 924e 45bc d03e 38bd 2471 aabc efb8 903c
000000a0: 4397 fb3c d400 263d a3de b23b d9fd 013c
000000b0: a79b 073c 0c44 02bd 5062 15bd cb7f 61bc
000000c0: d617 2dbd 3ff2 0b3a 3494 863c bc85 0d3b
000000d0: 945e 6ebb 5e66 e13c 3d96 003c 5530 bcbc
000000e0: 6a64 13bc d0b0 eebb e66e 26bd 4d10 083d
000000f0: 388b 80bc b00e 1dbd 1b70 cb3b 7c11 b2bc
00000100: 9f66 1d3d 783d 85bc 4838 f03c 66b2 4ebc
00000110: 1a8b 0abd f799 0ebd 8ee7 433a 342c 0a3d
00000120: fc46 053d 4184 27bd 4445 d2bc a9e9 28bd
00000130: 7e0b aa3c 3a47 f9bb 088e ffbb 4450 c6bc
00000140: ea7c dcbb 0356 3cbd ea95 cbbc 9344 e1bc
00000150: 35f9 dbbb 3a04 073d 66c7 c43c 18ce 03bd
00000160: 2f30 96bc 470d 9e3b 3ab2 0d3d 58be ad3c
00000170: c10f 21bd 899a 953c 732f 333d 3c51 16bc
00000180: 2e3c 9cbc 2f1f dbbc 7246 4b3c 21fd 4e3b
00000190: 1afb ebbc e40c 2e3c 54d2 433c 1260 c13b
000001a0: 3908 e5bc eca1 253d 410b b13a df7b 2e3c
000001b0: 913b 20bd a22f 053c a7ab cdbb a59d d13c
000001c0: 3efa 10bd 3d6b 063d 7b3f 843c f431 7cbc
000001d0: 0b5b 92bb 537f 403b 966e 6fbb 263c f63c
000001e0: 74e6 b9bc c1e5 d53c d6c6 a33b b540 013d
000001f0: d63b 473c 3319 a53c 2305 273d 0132 313a
00000200: 6019 3b3c 7b7c 323c d37e c03c ab17 f5bc
00000210: e7d1 64bc 1144 b5bc 954f bd3c fb26 173c
00000220: 4dd9 29bd 8454 c4bc 409d 4cbc d0fc 023d
00000230: 861e 583c cc05 32bd d007 153d 6eb8 3a3d
00000240: bd1e 8ebc 3e99 613c 0b0a 88bc 4a2d c33c
00000250: c4b6 083d bb66 abbc 181a 063d d841 2fbd
00000260: 7607 09bd 223d 3cbc 3897 a9bc d788 dc3c
00000270: 9364 26b9 8eb5 0bbd e36d e8bc c615 26bd
00000280: 678c e1bc be0b 1fbd 53e1 fabb b085 b03c
00000290: 2288 b7bb 640a 7bbc 09c0 9dbc fe7e 9d3c
000002a0: a4a4 db3a e0d4 543c acc7 97bc a06f febc
000002b0: ce91 d53c 3306 4bb9 6eb8 02bd 49d5 04bc
000002c0: 5c7f 3e3b 94b5 6fbb 63a7 603b 5ecf 10bd
000002d0: e277 abbc 43c6 29bd 7273 8a3c 104c d93c
000002e0: e973 263b 2992 eabc 9192 bd3c d654 093d
000002f0: f05e e23c 141b d53b 7e63 ecbb fd67 e9bb
00000300: 34b7 c3bc 0efb 253d 91ae ce3c c251 513b
00000310: df03 ebbb ff42 8f3b febd 093a a192 90bc
00000320: aa2e 853c 56c5 95bc f4a4 0f3d 584f 96bb
00000330: 8570 eebb 28d0 febc a2c3 d73c 53c3 0b3c
00000340: 1f7b f73c 0784 2cbd 8f1d 1bbd efc8 113c
00000350: 4544 a93c 9066 e23c e551 e9bc d1e1 2cbd
00000360: 28a0 0d3c 6f48 99bc 55e9 a43b 0488 30bc
00000370: 808c 1dbd d7b7 993c 786e a83c b731 873c
00000380: 0168 b03c 7de2 28bc b2cb d03b eb05 58bc
00000390: e7bc 5fbc c418 c6bc d717 9c3c ddcf ba3c
000003a0: 1ea0 a3bc 6be1 9f3b 5c2d 33bd bf07 a2bc
000003b0: 7f64 bd3c 0132 febc afe1 0a3d be80 003c
000003c0: 3d92 f93c a768 053d e9ae febc f1ee 6dbc
000003d0: a86d c73c 97a3 a93c 3af2 893c 526b 9fb9
000003e0: 3fc8 fbbc d7ba 64bc

fc2.weight f4 [50, 250]
0.06778942 -0.03335591 -0.039859537 0.0231548 -0.037214015 -0.035744447 -0.064225145 0.011579763
-0.032642808 -0.058613412 -0.014595683 0.05736444 0.081184454 -0.014236779 0.00054129044 -0.008185886
0.033457026 -0.061067164 0.005282353 0.044065513 -0.02295792 0.00902609 -0.02399787 0.016512215
-0.036174726 -0.020700421 0.04970257 0.029142948 0.060056936 -0.0116757145 -0.009320155 -0.031542737
0.053359423 0.067500085 -0.02492647 -0.040190615 -0.007370212 -0.0155407805 -0.042216353 -0.047125407
-0.05450705 -0.019170528 -0.04112217 0.04141946 -0.012216997 0.0009490526 -0.004443412 -0.012564283
0.03265215 -0.040733796 -0.03803256 0.0043652714 -0.038687643 0.017463867 -0.019627705 0.060476013
0.01232904 0.007637576 -0.054282434 0.01257229 0.049925 0.08801835 -0.027696645 -0.055264425
0.02487176 -0.017841643 -0.04929278 -0.002130412 0.046235196 0.017862918 -0.0046830433 0.054288216
0.017215865 0.028285695 0.029715305 0.015163905 -0.006209686 -0.03205719 -0.03474883 0.047525182
-0.0010033187 -0.03247316 -0.032907706 0.013249483 -0.0057741157 -0.0047185547 0.05156555 0.022847395
0.03080879 0.017531961 -0.0013512882 0.009689941 0.006788196 0.019949384 0.048132073 -0.033424683
-0.023795743 -0.02332404 0.018224493 0.06064882 -0.023430979 0.046866726 0.058459513 0.008489937
0.010973927 0.011775722 -0.04975868 -0.034088332 -0.022840407 0.06529727 0.014079197 0.057012916
0.05109975 0.0145686725 0.05629529 -0.0394766 0.011038929 0.0522216 0.06262954 0.04281122
0.06370543 0.022512559 -0.034331456 -0.04081985 0.040516596 0.034624413 -0.017134627 0.025564212
-0.024995493 0.04823436 -0.05350641 0.030442288 -0.06385985 -0.047845162 0.06320301 0.04145883
-0.024080489 0.03411547 -0.00060725625 -0.027183631 0.019266648 0.06233419 -0.056149594 0.0065823933
-0.0019539492 0.027378213 -0.0057943263 -0.020796753 -0.06510057 -0.0042821774 0.012259618 0.043940425
-0.06317207 -0.06010095 -0.020727284 0.046915032 -0.033825047 -0.00084739807 0.05468559 0.0029820376
-0.06209733 0.041258942 -0.039247602 0.018129764 0.03377848 0.02206732 -0.023175152 -0.048936613
0.040344704 0.055394024 0.029352427 -0.038822863 -0.0032581054 -0.023696603 0.048203003 0.009299566
-0.009388445 0.0033240863 0.065512426 -0.047024623 0.011692292 -0.023687866 0.023455199 -0.007252018
-0.05304411 0.0411472 -0.013115217 0.007392667 0.016200513 0.0091895545 0.047523413 -0.04954083
0.014617783 -0.042238142 -0.059820075 -0.01640529 -0.02559034 0.029068472 -0.05928495 0.0059592905
-0.04412955 0.013992035 -0.028012758 -0.009350043 0.038575478 -0.056278817 -0.047136962 0.014989109
-0.018849865 -0.018145839 0.05357885 -0.03314612 0.003200874 -0.049163107 -0.024413645 0.0039282073
0.04530485 0.0045681526 0.035925206 -0.03623531 -0.018538292 0.026172753 0.051734384 -0.014908581
-0.047812738 0.030846005 0.06335013 -0.05728434 0.009441156 -0.02183748 -0.01318806 -0.023877554
0.032134246 0.015018734 -0.030272435 0.014967024 -0.049334913 0.033590253 0.03961121 -0.053289216
0.022081949 -0.04700978 -0.06206178 0.049752686 0.009300031 0.05706372 -0.010928829 0.013686802
0.025293926 0.033755727 -0.03541182 -0.02962715 -0.03330463 -0.051642396 0.022029892 0.027094442
00000000: 2ed5 8a3d 35a0 08bd c143 23bd 23af bd3c
00000010: b96d 18bd c568 12bd 7988 83bd 0cb9 3d3c
00000020: 77b4 05bd 9e14 70bd bb22 6fbc faf6 6a3d
00000030: 0944 a63d 6141 69bc 63e5 0d3a 181e 06bc
00000040: 3c0a 093d 9021 7abd 9717 ad3b 0a7e 343d
00000050: 3f12 bcbc 2ae2 133c 2e97 c4bc a044 873c
00000060: f32b 14bd ee93 a9bc ec94 4b3d 31bd ee3c
00000070: 43fe 753d 7f4b 3fbc 90b3 18bc f532 01bd
00000080: 698f 5a3d 7c3d 8a3d 9932 ccbc ea9e 24bd
00000090: d281 f1bb c29e 7ebc 0eeb 2cbd 9206 41bd
000000a0: c942 5fbd 830b 9dbc b86f 28bd 74a7 293d
000000b0: cd29 48bc d8c9 783a 0b9a 91bb 6cda 4dbc
000000c0: 43be 053d 7bd8 26bd 08c8 1bbd 8d0a 8f3b
000000d0: ef76 1ebd 6210 8f3c 48ca a0bc b2b5 773d
000000e0: beff 493c a244 fa3b 4257 5ebd 02fc 4d3c
000000f0: 287e 4c3d f742 b43d 13e4 e2bc f35c 62bd
00000100: dcbf cb3c a328 92bc 3ae7 49bd 629e 0bbb
00000110: 1e61 3d3d 4155 923c 3774 99bb 525d 5e3d
00000120: 4908 8d3c 67b7 e73c 836d f33c 0772 783c
00000130: 9f7a cbbb 664e 03bd ca54 0ebd c4a9 423d
00000140: ca81 83ba 9402 05bd 3bca 06bd 5c14 593c
00000150: cb34 bdbb 1b9e 9abb 6636 533d 762a bb3c
00000160: b762 fc3c 309f 8f3c b51d b1ba 8fc2 1e3c
00000170: 846f de3b e46c a33c 2326 453d 52e8 08bd
00000180: 4aef c2bc 0f12 bfbc 884b 953c e66a 783d
00000190: 53f2 bfbc 53f7 3f3d 3e73 6f3d 6019 0b3c
000001a0: fccb 333c f5ee 403c c2cf 4bbd 35a0 0bbd
000001b0: ce1b bbbc 93ba 853d 6fac 663c 6086 693d
000001c0: f94d 513d 71b1 6e3c e495 663d 37b2 21bd
000001d0: a0dc 343c 51e6 553d eb43 803d d15a 2f3d
000001e0: fe77 823d 426c b83c 249f 0cbd b732 27bd
000001f0: bbf4 253d 54d2 0d3d eb5d 8cbc 0a6c d13c
00000200: 59c3 ccbc 6491 453d 8a29 5bbd 1b62 f93c
00000210: f4c8 82bd 4af9 43bd 9470 813d bcd0 293d
00000220: 7244 c5bc aabc 0b3d 4730 1fba 35b0 debc
00000230: 17d5 9d3c 2352 7f3d 1efd 65bd 1eb1 d73b
00000240: d40d 00bb 4648 e03c 55de bdbb f45d aabc
00000250: 7353 85bd 8251 8cbb 91dc 483c e0fa 333d
00000260: 5c60 81bd 6a2c 76bd 44cc a9bc fa29 403d
00000270: 228c 0abd ec23 5eba fffd 5f3d 4a6e 433b
00000280: c559 7ebd 23ff 283d 18c2 20bd df84 943c
00000290: 4e5b 0a3d 86c6 b43c d1d9 bdbc c271 48bd
000002a0: 7d40 253d d8e4 623d 8074 f03c b904 1fbd
000002b0: f085 55bb 611f c2bc 8370 453d 355d 183c
000002c0: fed1 19bc ead8 593b 612b 863d e49c 40bd
000002d0: 0791 3f3c 0e0d c2bc 1e25 c03c 56a2 edbb
000002e0: c844 59bd f789 283d 35e1 56bc 2f3e f23b
000002f0: f0b6 843c c98f 163c e9a7 423d 53eb 4abd
00000300: 6d7f 6f3c e701 2dbd e505 75bd 6364 86bc
00000310: d5a2 d1bc 0121 ee3c c7d4 72bd 2746 c33b
00000320: 30c1 34bd d93e 653c 037b e5bc ec30 19bc
00000330: 5201 1e3d 9e84 66bd b012 41bd e194 753c
00000340: 086b 9abc 95a6 94bc 7f75 5b3d 3ac4 07bd
00000350: c1c5 513b 415f 49bd 20ff c7bc 31b8 803b
00000360: 9491 393d 71b0 953b 4f26 133d 7a6b 14bd
00000370: 9edd 97bc 3e68 d63c 6fe7 533d 1f43 74bc
00000380: 4ad7 43bd c3b0 fc3c b7bd 813d fca2 6abd
00000390: 14af 1a3c 84e4 b2bc bc12 58bc dc9a c3bc
000003a0: 339f 033d 2311 763c e6fd f7bc 4038 753c
000003b0: 6813 4abd ef95 093d 5d3f 223d cb45 5abd
000003c0: 34e5 b43c 548d 40bd 7e34 7ebd 79c9 4b3d
000003d0: 285f 183c a6bb 693d d50e 33bc 9c3e 603c
000003e0: 3535 cf3c 7243 0a3d fc0b 11bd a3b4 f2bc
000003f0: 706a 08bd fa86 53bd 0878 b43c 2af5 dd3c

fc2.bias f4 [50]
-0.048754986 -0.043980237 -0.051810846 -0.02513574 -0.04918984 0.057693865 0.037316203 0.025452811
0.029192206 -0.023443662 -0.06491476 -0.013625455 0.013794531 -0.04323749 -0.018594464 0.039116584
0.040477224 0.045663036 -0.009730783 -0.059939917 -0.037516117 0.023947373 0.018329479 0.060014784
-0.0505022 0.054344837 0.03681517 -0.04116752 -0.03419294 -0.0072569614 -0.027445633 -0.039601512
-0.066182494 0.040060773 -0.0073516658 -0.052603334 -0.020646859 0.029056339 -0.03439954 -0.040944856
0.059892174 0.006649364 0.07395106 -0.02358545 -0.013553004 -0.053930353 -0.043250564 0.04827821
0.037632406 0.04345647
00000000: 4fb3 47bd 9f24 34bd 9c37 54bd 78e9 cdbc
00000010: 497b 49bd 6750 6c3d e0d8 183d 6a82 d03c
00000020: 7e24 ef3c ec0c c0bc 08f2 84bd 4d3d 5fbc
00000030: 7502 623c cb19 31bd 6b53 98bc b638 203d
00000040: 72cb 253d 2a09 3b3d dd6d 1fbc 8f83 75bd
00000050: 80aa 19bd 482d c43c b427 963c 10d2 753d
00000060: 65db 4ebd b198 5e3d 81cb 163d 469f 28bd
00000070: e50d 0cbd cecb edbb aad5 e0bc 3235 22bd
00000080: b08a 87bd c416 243d 3ee6 f0bb 9876 57bd
00000090: 9a23 a9bc 8f07 ee3c 88e6 0cbd cbb5 27bd
000000a0: 7f51 753d e8e2 d93b a773 973d 4636 c1bc
000000b0: 6b0d 5ebc 13e6 5cbd 8127 31bd 5fbf 453d
000000c0: 7024 1a3d 69ff 313d

fc3.weight f4 [2, 50]
-0.05760124 -0.09427626 -0.052055117 -0.084505305 -0.08944397 -0.019337293 0.106211476 -0.098453365
0.030159293 0.10709089 -0.015668176 -0.009298553 -0.093896285 0.08559781 -0.06902133 -0.127327
0.0394525 -0.008617307 -0.07874205 -0.08984233 0.10070944 -0.0009800246 -0.04074472 0.08893584
0.08757312 -0.0012952934 -0.15029487 0.02901072 0.13915066 -0.12003507 -0.1686683 0.010762652
-0.032640178 0.11603266 -0.0409821 0.06600807 -0.06527812 -0.08580461 0.0010902411 0.003132192
0.05517244 -0.006909852 0.07266207 -0.10881799 0.03536169 0.094746344 0.0035526988 0.1016374
0.0859325 0.10202733 0.07399868 0.016155666 0.11734651 -0.15151866 0.04249013 0.1130646
-0.06696831 -0.0034635155 -0.088329464 -0.077369675 0.10719699 0.07790503 -0.12381424 0.05381315
-0.018811556 -0.055182718 -0.07253802 -0.082034506 -0.0051640472 0.05149429 -0.003913559 -0.049145117
-0.03670366 -0.068229765 0.07447247 -0.028647084 -0.10186001 -0.074578725 -0.0014470258 -0.124122486
-0.062122326 -0.09052015 0.0091211 0.048233572 -0.044217426 0.013280466 0.058305472 -0.03873355
-0.10382851 -0.1286914 -0.004230485 -0.1266322 -0.053965554 -0.06895869 0.062174223 -0.06702581
0.09488246 -0.00039144632 0.023740424 0.14240287
00000000: 47ef 6bbd e913 c1bd bf37 55bd 1e11 adbd
00000010: 662e b7bd 3e69 9ebc 6785 d93d eba1 c9bd
00000020: 9f10 f73c 7852 db3d 8c5a 80bc f558 18bc
00000030: b24c c0bd e84d af3d 0e5b 8dbd 0262 02be
00000040: f298 213d 9b2f 0dbc 8343 a1bd 41ff b7bd
00000050: c040 ce3d 2b74 80ba efe3 26bd fe23 b63d
00000060: 8959 b33d d6c6 a9ba e6e6 19be e4a7 ed3c
00000070: 837d 0e3e f2d4 f5bd 62b7 2cbe d655 303c
00000080: b5b1 05bd 88a2 ed3d d9dc 27bd 3d2f 873d
00000090: 89b0 85bd 54ba afbd 6ce6 8e3a 7645 4d3b
000000a0: 7ffc 613d 0a6c e2bb dacf 943d f7db debd
000000b0: 6bd7 103d 5f0a c23d 65d4 683b 4527 d03d
000000c0: 61fd af3d b4f3 d03d 9f8c 973d e358 843c
000000d0: 5e53 f03d b527 1bbe 210a 2e3d 6a8e e73d
000000e0: ae26 89bd 26fc 62bb 14e6 b4bd fe73 9ebd
000000f0: 188a db3d ac8c 9f3d 5292 fdbd 2d6b 5c3d
00000100: b11a 9abc 4607 62bd d08e 94bd b501 a8bd
00000110: 2b37 a9bb adeb 523d 503d 80bb 644c 49bd
00000120: 9456 16bd 0cbc 8bbd 0685 983d 4aad eabc
00000130: fb9b d0bd bbbc 98bd 21aa bdba ee33 febd
00000140: fb73 7ebd a162 b9bd ab70 153c 9190 453d
00000150: 551d 35bd 5096 593c b8d1 6e3d 12a7 1ebd
00000160: 0ba4 d4bd aec7 03be e19f 8abb dfab 01be
00000170: fc0a 5dbd 373a 8dbd 66aa 7e3d d444 89bd
00000180: bc51 c23d 093b cdb9 477b c23c 0fd2 113e

fc3.bias f4 [2]
0.11833331 -0.053669617
00000000: bc58 f23d acd4 5bbd
