clip_images/CNN_model_best_model.pt (torch, 568007 bytes, 10 tensors)

conv1.weight f4 [10, 1, 3, 3]
00000000: 80e3 b63e 03df 213f 3472 423e 51d0 f4be
00000010: 0439 ab3e cdd3 5c3e f948 17bf 9e04 0fbf
00000020: a254 8fbe d112 8dbe cb4e 013f 70c4 e0be
00000030: 558d e33e dd30 053f f612 2fbf e6a6 eb3e
00000040: d9a7 debd 5156 2cbf 2410 293f ea70 ca3d
00000050: 1e65 d83e dd04 21bf f150 1cbf be03 62bf
00000060: 2a8a d93e 6f2f ac3e 27e0 86bd d39d 1fbf
00000070: da6c 72be b4cd fc3c d25a e6bd 74e0 873e
00000080: 64d0 c9be 9851 7c3e 0599 673e a039 0d3f
00000090: ba0e 1abd 9e96 39bd 5bff fdbe 16bb 1dbe
000000a0: e362 afbe f0ed eabe 3529 d23c 574e 7d3e
000000b0: 70dc 183f c3a5 a9be e5c6 a53e d167 a2be
000000c0: d9b1 163e 827a cd3e 0795 8dbe 5060 65be
000000d0: e472 033e d636 cbbd 1e17 843c b212 9ebe
000000e0: d529 1fbe 30a4 863d 01e8 a03e 8660 bbbd
000000f0: 8bad bbbe ecb5 8a3d ce53 12be e4b1 81be
00000100: 6748 953e 79ee 8ebd e974 39bd 39c1 153e
00000110: d4a1 a0be 3b24 cebb 9a8a 4cbd da38 77be
00000120: 4847 adbe 33a0 843e 3fcf 023f 2b31 97be
00000130: 22d7 88be f4b8 cc3d 8cbc b23d da62 07bd
00000140: 04cc dabe 47aa 923e 6eb3 e7bc 8601 bd3e
00000150: e3a5 953d db67 f5be 3631 38be 8f8e f73d
00000160: 7905 91be 5aa7 eebe
0.35720444 0.63230914 0.18988878 -0.47815183 0.33441937 0.2156517 -0.5909572 -0.5586642
-0.27994257 -0.27553418 0.50510854 -0.4389987 0.44443765 0.52027684 -0.6838831 0.4602577
-0.10871858 -0.6731921 0.66040254 0.09884818 0.42264646 -0.62898046 -0.61061007 -0.8828696
0.42488223 0.3362994 -0.065857224 -0.62350196 -0.23674336 0.030859806 -0.11247791 0.26538432
-0.39416802 0.246405 0.22616966 0.55166054 -0.0376117 -0.045309655 -0.49608883 -0.15403399
-0.34255132 -0.45884657 0.025654415 0.24736916 0.5971136 -0.3313428 0.32378307 -0.3171983
0.14716281 0.4013253 -0.2765276 -0.22400022 0.12836796 -0.099225685 0.016124304 -0.30873638
-0.15543301 0.06574285 0.31427005 -0.0914927 -0.3665584 0.0677298 -0.14289781 -0.25331032
0.291568 -0.06979079 -0.04527751 0.1462449 -0.31373465 -0.00629094 -0.04993687 -0.24142781
-0.33843446 0.25903472 0.5109748 -0.295297 -0.26726633 0.099962145 0.08727369 -0.033053257
-0.42733777 0.28645536 -0.0282838 0.36915225 0.07307031 -0.47930798 -0.17987522 0.12087738
-0.28324488 -0.46612054

conv1.bias f4 [10]
00000000: 3ba2 03be d44b 85bd d452 1b3e 3dfd 103e
00000010: 3451 a9ba 230a aa3e 4456 743e 98c0 9f3e
00000020: 6103 14be 57fb 1e3e
-0.12854855 -0.06508604 0.15168315 0.14159103 -0.0012917877 0.3321086 0.23861033 0.31201625
-0.14454414 0.15525566

conv2.weight f4 [20, 10, 4, 4]
00000000: a443 873d 7e60 e7bc ddce 263c d3d7 c4bd
00000010: 1279 3ebd 01d4 e63d 66d0 ffbd a40b 0dbe
00000020: 7dc9 253e 2066 6bbe e5db 55be cbc0 bebc
00000030: c9fc 22bb 4543 94bd d8c7 22be eee2 1ebe
00000040: f817 0fbe 3134 aa3d 257a 1abe b856 6dbd
00000050: 8883 10bd 395e de3d 7980 f0bd 6898 70bd
00000060: 76aa aabc 8e86 0cbe 1f0b 653e c0d3 7a3c
00000070: 2263 e5bd 7063 50bc eaf1 c53d 0b25 a4bd
00000080: cb0d 96bc a8db 62bd d957 4bbd d6e9 25be
00000090: 62ba 313d e314 8f3d 7350 d83d f567 bf3a
000000a0: 3be2 343e c992 8fbd b114 b7bd d858 a4bb
000000b0: c852 853d d971 673d 704d 9dbc 362e cabd
000000c0: 7192 e3bd d77f d0b9 622f a3bd cd1d bbbd
000000d0: 5eee 803d 899a 9c3d a887 c8ba e0eb 12be
000000e0: 34ed 68bc b01c 90bd 91ba 4bbd 6967 643c
000000f0: 6ff4 d3bc 735a 4f3e d3de ae3c 2605 173b
00000100: 70f0 85bc bc3a 2abd 16f3 563d 932d 703c
00000110: 1ef2 c53d c180 5e3c 561d 073d 5b08 7fbd
00000120: 1cdb 7d3d f502 703d 520d 23bd 5867 cabd
00000130: 5100 5dbd cf19 f8bc 75a5 0dbe fddf 02bd
00000140: c06c f63c ef4c 80bb 8af0 613c 3e1f 90bd
00000150: f7d3 703d 67fe 7fbb c9da 1b3d c273 273d
00000160: dff7 e83d 5324 3c3c 0185 55bd 7be9 553c
00000170: 6835 433c ba2b a73c 3244 95bd 872c 1b3d
00000180: 3665 4d3d 5a0e 9dbc dd75 a6bc 1d40 8cbd
00000190: d79c 673d 481e eb3c 38a3 73bd 18ea 8bbc
000001a0: 3f53 87bd efec 3a3c 324d 9f3b 98cb 0c3b
000001b0: 76d8 b2bc 76c8 63bd b995 d1bc 66ea 90bd
000001c0: 671b 1f38 c01e 77bc 2e74 7e3b c85b 7f3d
000001d0: 7c8c 90bd befa 56bd 51d7 a2bd 5422 953d
000001e0: 27f6 b13d f54d 2fba 6c22 17bc 2f9b 35bc
000001f0: 7eb8 8e3d 3f37 f53c e36e 763c aab2 153d
00000200: a652 cdbd 313e 1abd ec6b 823c 74a6 d7bd
00000210: 9ebf 9bbd 0259 da3c 204f 703c 55c9 a73c
00000220: 64a6 95bc 7379 583c 73d1 6f3d ade0 bd3d
00000230: f7ed 3d3d 4530 b13d c33c ff39 ec32 a03c
00000240: 060f 163d 7b35 83bd 4094 c63c 604d 413c
00000250: a136 98bc 2ba8 a0bc 87ab aebd 772b 7d3c
00000260: 73db b43d e6b5 253c 02fd 1dbb dee7 063e
00000270: 63a9 13bc a52c 42bd 6e4b 23bd 7608 74bd
00000280: 7e52 0cbe 9fc6 9fbd d310 0d3c 59bc acbd
00000290: 2b3b 543d 0bf1 05be 355b 28bb cf53 d13c
000002a0: 0b4b ff3d 609c 4f3d c280 68bd 7c5a 3e3b
000002b0: 37ab a1bd 26b5 babb 27d4 24be 73d7 81bd
000002c0: 8e85 483d bb43 023d 0f95 f8bd a040 5a3d
000002d0: 6d73 4abd cabc 6d3d 064f 2abd 7253 a9bd
000002e0: efe1 babd ad1b 7cbd 3fe1 72bd d6b2 a8bd
000002f0: d5c4 c33d 5975 f83c 18f0 e8bc e1ef 593d
00000300: 63d8 38bd fbc6 66bd 35dd 4fbd 0ed7 9b3d
00000310: ed52 1c3a 6744 46bd 82d0 d1bd 727a 363e
00000320: a8cb b53d ba72 6abd 5ea9 24bd c926 28bc
00000330: 86f5 eabd 031f 14bd d084 f03b 890b 90bd
00000340: f58f 663d dfd0 0abe a824 dbbc 285a e2bd
00000350: 973d bfbc c55e a03d 7f13 103e 5b8a 793d
00000360: 5f6f 08bd 5f75 8ebd 4ca5 9ebd f774 95bd
00000370: 28a4 87bd babb 7e3b 1ec9 27bc 485a a03d
00000380: a41c 50bd f21b cdbc c730 4fbd 63af 653c
00000390: 76f3 f93b e252 b03d ee5b a93a 3a93 c53d
000003a0: 1afd d4bc f156 3bbd a229 893c 61d1 703c
000003b0: fd14 d13c c5da 63bd d4a9 5a3d 8227 56bd
000003c0: 16f3 4e3d 962d 3bbd caa8 9c3d ea21 7a3c
000003d0: d066 10bd 826d 253c 568c 2e3c 8364 46bc
000003e0: 8cd9 8dbd 1f3e fe3c 3dd8 30bc a2fa 993c
000003f0: 12e2 df3c f25f 9dbd 3698 a43b 3276 72bd
0.06604698 -0.028244253 0.010181156 -0.09611478 -0.04650218 0.11270905 -0.12490921 -0.13773972
0.16190143 -0.22988176 -0.20884664 -0.02328529 -0.002486991 -0.07239393 -0.15896547 -0.15516254
-0.13973987 0.08310736 -0.15085657 -0.05794403 -0.035281688 0.10857815 -0.11743254 -0.058739096
-0.020833235 -0.13723204 0.22367524 0.015309274 -0.11200549 -0.01271902 0.09665282 -0.08014878
-0.018317124 -0.05538526 -0.049644325 -0.16202483 0.04339064 0.06986406 0.105622195 0.0014603125
0.17664425 -0.07010419 -0.089394934 -0.005015474 0.0650993 0.056505058 -0.019201964 -0.09872095
-0.11111916 -0.000397681 -0.07968022 -0.091365434 0.06295465 0.07646663 -0.0015299218 -0.14347792
-0.01421671 -0.07036722 -0.04973847 0.0139406705 -0.025873391 0.20249347 0.021346485 0.002304384
-0.016350001 -0.04155992 0.05247792 0.014659303 0.09665321 0.013580502 0.03298696 -0.062263828
0.061976537 0.05859657 -0.039807625 -0.098829925 -0.05395538 -0.030285744 -0.13832648 -0.031951893
0.030081153 -0.003915421 0.013790259 -0.07037209 0.058795895 -0.0039061548 0.038050447 0.04088188
0.11375403 0.01148327 -0.052128796 0.013056154 0.0119145885 0.020406593 -0.07288398 0.03788426
0.05014535 -0.019171882 -0.020319873 -0.06848166 0.05654606 0.028700963 -0.05948183 -0.017079398
-0.06607675 0.011409028 0.0048614973 0.0021483656 -0.021831732 -0.055611096 -0.025584089 -0.07075958
3.7934074e-05 -0.015083015 0.0038826573 0.06234339 -0.07058045 -0.05248522 -0.079512246 0.07281938
0.08689528 -0.0006687337 -0.009224515 -0.011084362 0.06968783 0.02993357 0.015041086 0.03654734
-0.100255296 -0.037656967 0.015920602 -0.10529795 -0.076049075 0.02665377 0.014667302 0.020481745
-0.018267818 0.0132125495 0.058549356 0.09271369 0.04636952 0.08651785 0.0004868266 0.019555531
0.03663542 -0.06406685 0.024240613 0.011798233 -0.018580737 -0.019611439 -0.0852881 0.015452257
0.08830919 0.010114169 -0.0024107103 0.13174388 -0.009012553 -0.047405858 -0.039866857 -0.05957838
-0.13703343 -0.07801556 0.008609968 -0.08434362 0.05181424 -0.13080232 -0.002568913 0.025552658
0.12465485 0.05068624 -0.056763418 0.0029045632 -0.07893985 -0.005697864 -0.16096555 -0.06339922
0.048955493 0.031802874 -0.12137806 0.053284287 -0.049426485 0.05804137 -0.04157927 -0.08267869
-0.09125125 -0.06154983 -0.059296843 -0.08237235 0.09559027 0.030329393 -0.028434798 0.053207282
-0.045128237 -0.056342106 -0.05074807 0.07609378 0.00059632846 -0.048405077 -0.10244848 0.17820147
0.08876735 -0.057238318 -0.040200584 -0.010263153 -0.11472611 -0.036162388 0.0073400512 -0.0703345
0.056289632 -0.1355624 -0.026750877 -0.11052352 -0.023344798 0.07830576 0.14069937 0.06092296
-0.033309337 -0.069559805 -0.077463716 -0.072977 -0.06623107 0.0038869218 -0.010240821 0.0782972
-0.050808564 -0.02503774 -0.050583627 0.014018866 0.0076278998 0.08609559 0.0012921074 0.09647222
-0.025999594 -0.04573721 0.016743485 0.014698357 0.025522703 -0.055628557 0.053384617 -0.05228377
0.050524794 -0.04569777 0.076493815 0.015266875 -0.0352543 0.0100969095 0.010653576 -0.012108925
-0.069262594 0.031035481 -0.010793743 0.018796269 0.027329478 -0.07684316 0.005023028 -0.05919475

conv2.bias f4 [20]
00000000: 1b49 f33b 723e 02bc 7c10 193d 95d6 c0bd
00000010: 5973 8d3d 385f c8bd cdf8 07bd 10f4 4dba
00000020: c023 d4bc cf04 7fbd 6536 b7ba fc74 8dbb
00000030: 6802 5a3d 0a78 fa3c 2191 c2bd cb14 3bbc
00000040: 5044 073d 02a5 9abc a187 b03c 9de3 aabd
0.0074244863 -0.007949458 0.037369236 -0.09415928 0.069067664 -0.097837865 -0.03319626 -0.00078564975
-0.025895953 -0.062260445 -0.0013978003 -0.004316924 0.05322495 0.030574817 -0.095003374 -0.011418532
0.033024132 -0.01887751 0.021549048 -0.08344195

fc1.weight f4 [250, 500]
00000000: 0290 863c b518 313a 6868 b53c a2aa 3c3a
00000010: 80a7 673b ad87 c23c 79c8 06bd ac05 71bc
00000020: 872b 14bc 9cbd 203d 6c38 b1bc 6671 ee3c
00000030: af17 87ba 89fe 1dbd 9c97 6b3c 5758 ea3b
00000040: 3968 0fbd 0b2d fa3b 58f8 a1bc 54de a737
00000050: 280e 2ebd 218b 7cbb db43 0abd 102a 0bbd
00000060: 601e 173d 9b82 8c3c c43c c43c 03ad acbc
00000070: 3bba cfbc 8767 ae3b 4a51 0fbc 8913 90bc
00000080: 565d 96bc 93cd dcbc feb8 df3c 0f52 61bc
00000090: 5885 13bd 8cfc d73c 8c23 f63b 0997 4cbc
000000a0: b235 0abd f2af b83a 5fac c93c 2363 e63c
000000b0: 8888 f1ba 2831 34bd 62fb b4bc b494 6dbc
000000c0: 5bbd 193d c744 993c d1fa 19bd 7853 97bc
000000d0: 1ec1 5cbc 160a 783c dd58 edba 7dc6 123d
000000e0: 02b4 6dbc 0b57 fb3c 7568 743b 96fd 1b3d
000000f0: eb2a 8b3c 63d6 dd3c 116a 28ba a3bd 4ebc
00000100: a8c5 99bc 2c2d 34bd 4e61 1cbd 6592 1bbd
00000110: 5119 023c ecf4 fdbc a1d2 01bd cd26 833c
00000120: af37 16bd 5ea7 ce3c c97f 1ebd c60a c73c
00000130: 531e 84ba 480c 473c 5c0d 1cbc ec4e 3ebd
00000140: 8062 82bc 048d af3c f964 053c a023 41bc
00000150: c1b8 a23c fbed d43c bb92 17bd 9e84 96bc
00000160: d313 2ebd 2d89 1b3d 67aa 0abd 7407 13bd
00000170: 3efa ac3c 1578 c5bc d6d0 09bd 6224 19bd
00000180: 2491 e23b 162d 36bd b680 9dbc 75e6 893c
00000190: accf 30bd cec3 dbbc 9245 c6bc 2ad4 95bc
000001a0: 5dc0 d43c 830a c8bb 5cbd 843b 6d85 37bc
000001b0: 59e9 0ebd c90c bdbc edb5 fc3c de3f 88bc
000001c0: 233c 3f3d 202e e33b deba 33bd 20b8 21bd
000001d0: 8ec0 01bd 3e9a de3b 0f35 903c cf8d 133d
000001e0: 14a6 95bc 80f8 81bc 8898 37bc 3e17 ab3c
000001f0: 84a7 553c cb3c d8bb 83f1 293d 5b9e 7bbb
00000200: 5412 dfbc d557 e0bb 7e80 ef3c ea10 a2bc
00000210: 140c a1bc 5e77 d13c 1d87 acbb 9280 093d
00000220: 233f 80bc 16e9 2c3c 4165 33bd 4dbe eabc
00000230: ea1f 45bc 738c 46bb 1d47 ebbb 0193 00bd
00000240: a450 da3c 5784 903c 1a7a 9abc 30a8 e43c
00000250: 7113 2b3d 9990 cd3b 4379 54bd 68aa 053c
00000260: 5bc8 1abd b296 bbbc f24b e4bc 2f72 4e3c
00000270: 702e 20bd 788e a33c 02cb 313d d4d3 003d
00000280: a511 5b3c 9533 d5bc 994f 00bd 8f8e 413c
00000290: 95ea 793c baab 2fbd 2fbe 95bc c15e 153b
000002a0: 55f9 843c 7cc7 8c3c c7f1 ecbc ef57 873c
000002b0: 6051 0e3d 50ff c73c fdf8 a53c 0b6a 0abd
000002c0: ee31 27bd 54b3 fabc c757 153c 3594 44bd
000002d0: a03a 033d f28f cf3c 1ead 423d dc2e 85bc
000002e0: 12c3 973c 38aa ac3c e94f 46bd a2ac 8538
000002f0: d70b 19bd cc35 81bc fc17 d9bc 68ed bcbc
00000300: 9dab 34bc 858d 053d eb3e 0b3c 6827 57bc
00000310: 62cd bdbc feaf 2bbd 4422 073d 4435 ebbc
00000320: 91b5 06bd 8c4a b83c 7e5f 98bc 4fd7 1c3c
00000330: 92be 04bd 5980 5b3c ff69 973c 389f f53c
00000340: 29e6 f7bc d9d3 93bc 6d97 21bd dc2e c2bc
00000350: f079 9d3b 8c14 3ebd bd3c e53c a900 21bc
00000360: 9403 673b 8598 bbbc 1207 15bd 9e14 85bc
00000370: 719c 113d e361 44bc 8995 093d 0930 ddbc
00000380: 7a50 283d a0e2 13bd bc25 1ebd bf34 993c
00000390: 00ac 93ba b242 9abb 31bf 913c 8050 3b3c
000003a0: 2462 3f3c f8da d5bc 0649 193d 9a40 e8bc
000003b0: 5530 8b3c 187c 39bc 94c2 21bd 7ca6 a23b
000003c0: 0b04 e939 6f36 a9bc 8bed ccbc dde9 d63c
000003d0: 1286 003d c714 43bd 8af2 20bd 46f3 d13c
000003e0: a690 0e3d 7db4 b53c 70f8 f93c 54e9 4bbd
000003f0: affd 96bc f66b d63c 5f0d 143c cb93 8dbc
0.01642609 0.0006755696 0.022144511 0.0007197057 0.003534764 0.023746336 -0.03290603 -0.014710825
-0.009043581 0.039243326 -0.02163335 0.029106807 -0.0010306741 -0.03857282 0.014379408 0.007151644
-0.035011504 0.007634764 -0.01977174 2.0011481e-05 -0.04249397 -0.0038535076 -0.03375612 -0.03397566
0.036894202 0.017152121 0.023954757 -0.021078592 -0.025357356 0.0053224 -0.008747408 -0.01758744
-0.018355053 -0.026953494 0.02730989 -0.013752474 -0.03601584 0.02636554 0.0075115617 -0.012487181
-0.033742614 0.0014090522 0.024618326 0.028123444 -0.001842753 -0.04399219 -0.022092525 -0.014500786
0.0375341 0.018709553 -0.037592713 -0.018472418 -0.013473777 0.015139123 -0.0018108148 0.035833824
-0.014508249 0.030681154 0.0037293707 0.038083635 0.016988238 0.027079767 -0.00064244965 -0.012618455
-0.018771008 -0.04398839 -0.038178734 -0.03798141 0.007940606 -0.031000577 -0.031695012 0.016009713
-0.036674198 0.025226291 -0.038696084 0.02429713 -0.0010079838 0.012148924 -0.0095246695 -0.046461985
-0.01591611 0.021429546 0.00814175 -0.011788279 0.019863488 0.025992384 -0.037005167 -0.018373784
-0.042499375 0.037972618 -0.033853915 -0.03589578 0.021115419 -0.024105111 -0.033646427 -0.037388213
0.0069142748 -0.04447659 -0.019226413 0.016833523 -0.0431668 -0.026826765 -0.024203096 -0.018289644
0.025970632 -0.0061047687 0.0040508937 -0.011201245 -0.034890506 -0.023077386 0.030848468 -0.016632017
0.04668821 0.0069329888 -0.043879382 -0.039482236 -0.031677775 0.0067932894 0.017603425 0.03602391
-0.018267669 -0.015865564 -0.0112058 0.020885106 0.013040427 -0.006599044 0.04149009 -0.0038393948
-0.02723042 -0.006846408 0.029236075 -0.019783456 -0.01965908 0.025569614 -0.00526513 0.03356988
-0.015655106 0.010553619 -0.043797735 -0.028655196 -0.012031535 -0.0030296117 -0.007180108 -0.031390194
0.02664978 0.01764123 -0.01885705 0.02791223 0.041766588 0.006273341 -0.051873457 0.008158304
-0.03778873 -0.022899006 -0.027868245 0.012600466 -0.039106786 0.019965395 0.043406494 0.031452015
0.013370906 -0.026025573 -0.03132591 0.011813774 0.015253683 -0.04288838 -0.018279163 0.0022792073
0.016232172 0.017184965 -0.028923882 0.016521422 0.034745574 0.024413735 0.020260328 -0.033792537
-0.0408191 -0.030603088 0.009115166 -0.047992904 0.03203833 0.025337193 0.04752838 -0.016257696
0.018525634 0.02107726 -0.048416052 6.3740896e-05 -0.037364807 -0.015772723 -0.026500694 -0.023062423
-0.011027244 0.032605667 0.0084988875 -0.013131954 -0.023169223 -0.041915886 0.032991663 -0.028711922
-0.032888 0.022496484 -0.018600222 0.009572818 -0.032408305 0.0133973 0.01848316 0.029983148
-0.030261116 -0.018045353 -0.03945105 -0.023703985 0.004805796 -0.046406314 0.027983064 -0.009826818
0.0035249935 -0.022899875 -0.036383696 -0.016245183 0.035549585 -0.011986229 0.033589873 -0.027000444
0.041092373 -0.0361048 -0.038610205 0.01870191 -0.001126647 -0.0047076577 0.017791362 0.011432767
0.011681113 -0.026105389 0.037423156 -0.028351117 0.01699082 -0.01132109 -0.039492205 0.004963694
0.00044444235 -0.020655839 -0.025015613 0.026234562 0.03137786 -0.047627237 -0.039293803 0.025628697
0.034805916 0.02218079 0.030513972 -0.049783066 -0.018431513 0.026174527 0.009036391 -0.017282387

fc1.bias f4 [250]
00000000: 31e4 c5bc f06c d2bc f225 aebc de59 ac3c
00000010: 5501 b43c 31e6 46bc 72e5 22bd 7d48 1bbd
00000020: 9dc8 073c f291 103b 347c e13c 690f e43c
00000030: 4ad2 283c 1503 03bd 60b7 b03b 8112 0c3d
00000040: 2cd3 a63c 9ca2 473c 46a5 acbb a32e bfbc
00000050: 1f85 11bd 0c52 3e3d adb7 83bc 8410 ee3c
00000060: fe37 db3c 2cdc ebbc 8dc8 043c 1221 8b3c
00000070: c9ba 183c 5058 033d 0ab4 923c f443 2d3c
00000080: 1737 663c 9d1d d83c 4f29 b5bb 18bf 74bc
00000090: ae09 19bc bbb1 5ebc d92a 1c3d 07d2 053d
000000a0: cd32 e3bc 3d2d fcba e25e 3d3d 52cc 10bd
000000b0: 9c08 fc3c f91e e63b 6691 323d eead 0fbd
000000c0: 6987 313c a974 d4bb 53e0 6e3c 8c60 f0bc
000000d0: d774 cdbc 176a 34bd d304 b9bb 9f47 1abd
000000e0: c6db 173c 9e30 6fbc 36c5 f4bb 02cc 3fbd
000000f0: f38b e9b8 9c74 e8bc c465 29bd 1536 ef3c
00000100: d220 003d 1c42 0d3c 0688 3abd 2877 dcbc
00000110: 1813 783c 07b0 20bd 014c 3ebc 9121 16bc
00000120: 4b96 70bc c20d 483b a74f 0dbd 707a 363d
00000130: 47ac 7f3b 5278 32bd 4a63 cb3b c4d1 a33c
00000140: 7f8d 27bc 00d9 4e3d 18ed a03c a507 3bbd
00000150: 19de 743c 1c55 24bd 4f99 46bc 0167 893c
00000160: 7359 c6bb 35ba f4bc e63e 25bd 8ad9 3e3c
00000170: 9564 2bbd 1a36 a63b 1927 f13c ec15 f93c
00000180: 51fd 1cbd 0a64 1c3d 8ac4 8b3b 85ea 1ebd
00000190: d25e f23c c002 44bc ed90 fb3c 737a cf3b
000001a0: bfa0 e9bc 3e02 8fbc d666 933c c5a9 843c
000001b0: 92d3 15bc 744a cf3c 640d 02ba 5b0d 2eb9
000001c0: 1f49 443c e50f e6bc 680f 47bc dd01 92bb
000001d0: ac47 6b3a 1dc6 123d 0f5e bc3b 4f04 203d
000001e0: f049 873c 1845 363b 8d31 ad3c 4a98 66bc
000001f0: 8d00 74bc bcae 093d 8c78 123d d258 933c
00000200: e003 3abc 2d67 e1bc c4ce 28bd bae2 4dbd
00000210: 9912 06bd ad44 e53c e187 bbbc 0e00 4e3c
00000220: cc4c b7bc 2149 b93b b22d 213b 8046 03bd
00000230: b29b 3d3c 542a 22bd c011 07bd a648 533c
00000240: 561e 983c 1f75 82bc 9940 913c 63e9 4fbc
00000250: 4b53 17bb dd1f a33c 955d 6abc f6f5 06bc
00000260: fc17 193d e3fa efbc c6c4 b63a ceec f4ba
00000270: c5f5 8b3c 7d02 91bc c7d9 edbc 0b29 cd3c
00000280: 80e6 68bb a766 e3bc ed13 98bb da6f 04bc
00000290: 6fb8 bd3c 2c6c ecbb 3f53 173d 531b 11bc
000002a0: 917d 063d deb9 a43c 70a4 28bd b285 db3c
000002b0: b341 683b abeb e63a 6af1 f43c 03c8 bfbc
000002c0: f184 c5bc 3460 083d 304f 933c 551d bcbc
000002d0: 46c1 0d3d 0bc4 05bd f396 9b3c f4a7 b83c
000002e0: cef5 c7bb e312 c6bc d4fb a2bc af8b ce3c
000002f0: 7af9 773c 66b2 5cbc cd43 c93c e18e 923c
00000300: 0154 e4bc 3ddf 18bd c430 f8bc 122e 1bbd
00000310: f0c9 0c3c 8f8a abba 8e93 14bd abd2 2cbc
00000320: 944f 8a3c e3df d2bc 63b9 a73c 2361 0e3d
00000330: 8e06 9dbc 850a 97bc 979e 46bd a5cf 1fbc
00000340: aefe a43c b205 3a3a acd3 7d3c fcfd 19bd
00000350: cfef e73c e8f3 0d3c 143d 383c aa18 033d
00000360: 889b 03bd 8cc4 253d 52a0 d2bc 7a8e 5f3c
00000370: 2bb9 823c 54e8 43bd 8385 d2bc 8810 3fbc
00000380: c807 15bd 2fa5 fa3c 20f6 cd3b d1f5 f3bb
00000390: 37a2 b9bc 6f9e 1c3d 4d4c ee3c f08d f1bb
000003a0: b158 203c 34af d43c 6d97 acbc 3ede 333d
000003b0: ab03 693c b854 8dbc 1899 97bc 2c60 e73c
000003c0: 23bf b0bc f58a babc 7a03 f7bc e91e 043d
000003d0: b5ec 1fbd 6fa8 26bc b76b 13bd 2985 493d
000003e0: ce12 e63a 55d4 1c3d
-0.024156662 -0.025686711 -0.021258328 0.021038946 0.021973291 -0.012139843 -0.039769597 -0.037910927
0.008287576 0.0022059646 0.027525045 0.02783938 0.010304043 -0.03198536 0.0053929538 0.034197334
0.020364366 0.012184765 -0.0052687256 -0.023337668 -0.035527345 0.046464965 -0.016078794 0.02906061
0.026760098 -0.02879151 0.008104456 0.016983543 0.009321877 0.032066643 0.017908115 0.010575283
0.01405122 0.026381308 -0.005528606 -0.014938138 -0.009340687 -0.013592179 0.0381268 0.032671
-0.027734185 -0.0019239556 0.046233065 -0.035351105 0.030765824 0.007022735 0.043595694 -0.03507798
0.010835507 -0.0064836335 0.01457985 -0.029342912 -0.025080128 -0.044046488 -0.005646327 -0.03766596
0.009268707 -0.014598994 -0.0074697984 -0.046825416 -0.00011136373 -0.028375916 -0.041356817 0.029200593
0.0312813 0.008621719 -0.04553988 -0.026912287 0.015141271 -0.039230373 -0.0116148 -0.009163276
-0.01468427 0.0030525778 -0.03449979 0.04455036 0.0039012597 -0.043571778 0.0062069045 0.019997485
-0.010226606 0.050499916 0.019644305 -0.045661587 0.01494553 -0.04012023 -0.012121513 0.016772749
-0.0060531436 -0.029873947 -0.040343188 0.011648545 -0.04184397 0.0050723674 0.029437589 0.030405961
-0.03832752 0.038181342 0.0042653726 -0.038797874 0.02958623 -0.011963546 0.030708754 0.0063317358
-0.028519033 -0.017457124 0.017993372 0.016194234 -0.009144681 0.025304057 -0.0004961102 -0.00016598908
0.011980324 -0.028083751 -0.012149669 -0.0044557885 0.00089752185 0.035833467 0.0057485173 0.03906661
0.016514748 0.002781218 0.021141792 -0.0140743945 -0.014892709 0.033613905 0.035759494 0.017986689
-0.011353463 -0.027515018 -0.041212812 -0.05026505 -0.03273258 0.027986849 -0.02289194 0.012573255
-0.022375487 0.0056544696 0.0024593887 -0.032049656 0.011572765 -0.03959115 -0.032975912 0.012895739
0.018569153 -0.015924988 0.017730998 -0.012689921 -0.0023090418 0.019912655 -0.014304538 -0.008237353
0.03737639 -0.029294437 0.0013944141 -0.0018686296 0.017084965 -0.017701382 -0.029034508 0.025043985
-0.003553778 -0.02775891 -0.004641047 -0.008083308 0.023159234 -0.0072150435 0.036944624 -0.008856612
0.032834593 0.02010816 -0.041172445 0.02679715 0.003543955 0.0017617842 0.029900271 -0.023410803
-0.024111243 0.03329487 0.017982095 -0.022963205 0.034608148 -0.032657664 0.018992877 0.022541024
-0.0061023002 -0.024178928 -0.019895472 0.02521309 0.015135163 -0.013470268 0.024568463 0.017890396
-0.027872087 -0.03732227 -0.03029669 -0.037885733 0.0085930675 -0.0013087558 -0.03627353 -0.010548274
0.016883649 -0.025741523 0.020474141 0.034760606 -0.019168165 -0.018437633 -0.048491087 -0.009754096
0.020140972 0.00070961856 0.015492361 -0.037595734 0.028312592 0.008664109 0.011245031 0.032005943
-0.032130748 0.040470645 -0.025711212 0.013644809 0.015957436 -0.047828987 -0.025698429 -0.011661656
-0.036384374 0.030596344 0.006285444 -0.007445075 -0.022660358 0.03823703 0.029089117 -0.0073716566
0.009786771 0.02596245 -0.0210683 0.04391312 0.014222066 -0.017252311 -0.018505618 0.0282441
-0.021575516 -0.022771338 -0.030153025 0.03225604 -0.0390441 -0.010171994 -0.035991397 0.049199257
0.0017553212 0.038288433

fc2.weight f4 [50, 250]
00000000: 3fad c93c 194c 8f3c a2bc ed3a 6919 01bd
00000010: af83 23bb d74f 163d 3d45 f03c 0486 ad3c
00000020: 0bfd 46bd a46e fc3c ba3a d3bc 4ba9 743d
00000030: 5366 943d a4ac 34bd e746 8dbc e3c3 39bc
00000040: 0ac7 05bb 99c6 203c d5e9 e73c 03c1 5b3c
00000050: fc6d 8a3c 0016 94bb 674c 963d 33b5 a93b
00000060: 7345 1bbd a958 7c3d de9a 4d3d 7ed4 28bc
00000070: 0deb 833d 59e6 1e3d fc73 ab3d 2adb 7f3d
00000080: 754b a0bc adb2 70bd af87 c73c d725 73bd
00000090: 0ea3 8d3d 51b6 87bd 486e 94bd 2bf9 cb3c
000000a0: bf23 49bb 6893 92bc 500d 93bd 4280 6f3d
000000b0: 0c44 17bc 5a8a 23bd 2470 eb3b 9691 e93c
000000c0: ec7c 9ebc 8d29 f13b 7325 5d3d 9c82 58bd
000000d0: 3666 4ebc efbd 0c3a 23c0 eebc 56dd cb3c
000000e0: 2479 3dbd b980 633c 8bf6 32bc 2368 a03c
000000f0: 0468 363d 1536 0bbd 876f 773d a10b fd3c
00000100: 46fa 2d3d a899 b2bc 1912 aabc 3558 e1b9
00000110: deb3 5ebc 319f acbd 74a4 debc 7e79 febc
00000120: d89b bbbc 32fb 06bd bd68 d7bc a33a 91bd
00000130: acd9 023d a2e3 7ebd 2141 1e3d f8dc b4bc
00000140: 912c 1c3d a405 06bc 8217 11bc a084 1f3d
00000150: 391c 31bd 2cc3 a6bc a46a e53b bfb4 d6bb
00000160: 03bf 12bd bfc8 3bbd deaf 24bd d492 0dbd
00000170: c3de 823c c527 16bd 5f12 c1bc c367 1fbd
00000180: b2e2 04bd 4e7f febc 8669 3abd f758 3a3d
00000190: 813f 26bd 5ada 1e3d 4764 94bc fada 1ebd
000001a0: 37a7 a4ba 619b 27bc 9640 f93c 0ef2 20bb
000001b0: e434 82bc 133c 48bd 62dd b1bc b351 353d
000001c0: 139f ba3b e94b 75bc 80cf 083d 7d69 acbc
000001d0: 2287 d43c 28c7 e23a d820 173d a648 383d
000001e0: 9de8 c93b be3e 41bd e08e ed3c a5a7 24bd
000001f0: d4ec b73c ad91 84bb d5ff 98bc f420 ed3c
00000200: c95d 49bc f46f 78bd 2869 66bc 7826 a23c
00000210: 1955 b23d b367 5c3d e2c3 37bd 7695 a4bc
00000220: ec7e 1eba 7685 2dbd 7989 0e3d cb05 3b3d
00000230: e75d 26bc d0a2 f3bc 50dd 41bd 677f ae3c
00000240: a070 923c 350a a7bc a5c2 ebbc bf99 5fbd
00000250: b314 e73c 67d8 163d f4e2 12bd 4e19 37bc
00000260: 574b a3bd bff8 97bd 41b8 1cbc 4525 333d
00000270: c377 2fbd e951 483b 9065 4b3d 9358 0f3c
00000280: 6b86 dc3c 3597 af3c 5a5c 793c afa5 223d
00000290: b7b4 353d cf6a f7bc 3ba8 62bd 15c1 12bc
000002a0: 7aab ccbb 8a49 64bc 2237 ca3a f5ee 8a3c
000002b0: 4e4a 32bd 5a24 db3c b23c feba 3ab1 5abd
000002c0: 098a 043d a40e 38bd 7e34 1cbd 248b eabc
000002d0: 5204 cfbc bb70 173d fb3c 2bbc e73c 7d3d
000002e0: 4923 3b3d 26a3 893d dcb1 63bd 0124 6f3d
000002f0: 07be a23b 0324 323d 6222 c53c fa67 a73b
00000300: 10b1 4cbd 553e 8fbd e1b9 443d 2819 a33b
00000310: f00f 23bd 7fa8 db3b b531 72b9 8d79 15bd
00000320: 8255 07bc b898 0a3d 524f 2f3d 9ba0 f3b9
00000330: d493 6f3d 7d20 b4bc 8cfc a53d 8630 193c
00000340: 24e4 16bd 304b d73c e4c2 a23c e80c b23d
00000350: f61f 213d d04b f43c 85c9 ad3d 0781 c23c
00000360: 26cc a73c 1f01 8dbd 0cda d7bc 91de cbbb
00000370: c041 b03b 8839 82bd bf3b c3b8 b65a c5bc
00000380: fabc 9ebb 23c5 d7bc 129e 02bd e137 48bd
00000390: d0aa 11bd 3f8a c43b 2720 edba 913f 8c3d
000003a0: 1b01 0d3c 7233 143d 79a0 3c3d ddf1 6dbd
000003b0: 6f2f 203d d60b 53bd c918 dcbc b622 1dbd
000003c0: 5fca 633b bb7d 04bd 754a 37bd c3e2 5c3d
000003d0: be1e 17bd 615c 91bd 0325 35bd f853 c13c
000003e0: 6ab6 ecb8 5101 663d 98f6 19bc eabf fd3c
000003f0: d7ee 2f3c 1221 013d a9ed 1abd a9da 13bc
0.024618743 0.01749234 0.0018137882 -0.031518374 -0.0024950316 0.036697235 0.02932989 0.021182068
-0.048581164 0.030814476 -0.025784839 0.059731763 0.07246079 -0.044109955 -0.017245723 -0.011338207
-0.0020412826 0.009812974 0.028309742 0.013412717 0.016898148 -0.004519224 0.07338791 0.0051790713
-0.03790803 0.06160799 0.05019652 -0.010304568 0.06441317 0.038793895 0.08371732 0.06246487
-0.01956723 -0.05876415 0.024356691 -0.05936226 0.06915866 -0.06626571 -0.07247597 0.024899086
-0.0030691472 -0.017892554 -0.071802735 0.058471926 -0.009232532 -0.039926864 0.007184999 0.028511804
-0.019346677 0.0073596896 0.053990792 -0.052858934 -0.012597611 0.00053688785 -0.029144352 0.024885815
-0.046258107 0.01388567 -0.010923038 0.019580906 0.04453279 -0.033987124 0.060409095 0.030889334
0.042475007 -0.021801785 -0.020760583 -0.00042981064 -0.013592688 -0.08428801 -0.027178027 -0.031063791
-0.02290146 -0.032954402 -0.02629506 -0.07091262 0.03194587 -0.062228806 0.03863633 -0.022078022
0.03812844 -0.008180056 -0.008855702 0.03894484 -0.043239806 -0.020356737 0.007001238 -0.0065523083
-0.035826694 -0.045845743 -0.040206783 -0.034563854 0.015975362 -0.03665902 -0.02356833 -0.038917314
-0.032442756 -0.031066563 -0.04551079 0.045495 -0.040587906 0.038782455 -0.018114222 -0.03878305
-0.0012562041 -0.010229916 0.030426305 -0.0024558338 -0.01589436 -0.048885416 -0.021712009 0.044267368
0.0056952327 -0.014971712 0.033401012 -0.021046394 0.025943343 0.0017301785 0.036896557 0.044991158
0.006161763 -0.047178976 0.028998792 -0.04019894 0.022451796 -0.004045686 -0.018676678 0.028946377
-0.0122904265 -0.06065364 -0.014063157 0.019793734 0.08707637 0.053809833 -0.044864543 -0.0200908
-0.00060461345 -0.042363606 0.034799073 0.04565982 -0.010154224 -0.029740721 -0.0473302 0.021300985
0.01787597 -0.02039061 -0.028779337 -0.054589983 0.028208112 0.03682747 -0.03586097 -0.011175467
-0.07973354 -0.074204914 -0.009565414 0.043736715 -0.042838823 0.00305664 0.049657404 0.008749145
0.026919564 0.021434406 0.015219772 0.03970879 0.044361796 -0.030202297 -0.05533622 -0.008957167
-0.0062460275 -0.013933549 0.0015427808 0.016959647 -0.043527894 0.026750732 -0.0019396751 -0.053391673
0.032358203 -0.044935837 -0.038135998 -0.0286308 -0.025270615 0.036972743 -0.010451551 0.06182566
0.045687947 0.06720571 -0.05558954 0.058383945 0.0049665007 0.043491375 0.024064247 0.0051088305
-0.049973547 -0.06994311 0.04802883 0.004977364 -0.03981012 0.006703436 -0.00023097436 -0.036492873
-0.008260133 0.03383705 0.042800255 -0.00046468232 0.05849059 -0.021988148 0.0810481 0.009349948
-0.036838666 0.02628097 0.019868322 0.08693868 0.03933712 0.029821306 0.084857024 0.023743166
0.020483088 -0.068849795 -0.02634909 -0.0062216003 0.0053789318 -0.063586295 -9.309453e-05 -0.024091106
-0.004844305 -0.02633912 -0.03188903 -0.048881415 -0.03556329 0.0059979255 -0.0018091247 0.06848062
0.008606221 0.036181875 0.046051476 -0.058091987 0.039107736 -0.05152496 -0.026867287 -0.03836318
0.0034758074 -0.03234647 -0.044748742 0.053927194 -0.036894552 -0.07097698 -0.04422475 0.02359961
-0.00011287334 0.0561536 -0.009397171 0.0309753 0.010738096 0.03152568 -0.037824307 -0.009024301

fc2.bias f4 [50]
00000000: b60d aa3c b89a 993c 8587 ff3c 2db7 f7bb
00000010: 549f 9b3c 9608 513c 07a0 043c 6896 093d
00000020: 6358 c3bc 1dc3 22bd 27b7 8fbc 9915 35bd
00000030: 3006 62bc fe4a 503d a96f 673c 7dd0 43bd
00000040: 0641 e6bc 3aff dcbb 7cd8 a03d df1f c33c
00000050: eb6c 59bd 8944 873a 839e 85bd bf19 a23d
00000060: 79cb 393d 6ba7 1f3d 4d1e 8a3d 7b00 67bc
00000070: dfae 353d 36c2 b23c 836b 2cbd 6e0b 8a3d
00000080: d072 133c 1d0e a4bc c15d f23b ee22 35bc
00000090: 5554 643d 602e d83c 82b2 2ebd e51c 67bd
000000a0: 0730 183a d40b 27bd 660c 83bd 376d 11bd
000000b0: 3337 703c 4332 563d 0603 453d a769 023d
000000c0: 56bc f33b 82ab 2c3d
0.020758491 0.018750533 0.03119255 -0.007559678 0.018996872 0.012758395 0.008094794 0.033590704
-0.023845857 -0.039736856 -0.017543389 -0.04421005 -0.0137954205 0.050852768 0.014125743 -0.04780625
-0.028107177 -0.0067442926 0.07853791 0.023818908 -0.053082388 0.0010320108 -0.06524374 0.07915067
0.045360062 0.03897802 0.06744061 -0.014099236 0.044356223 0.021821123 -0.04209472 0.06740461
0.008999541 -0.020026261 0.0073964302 -0.011055691 0.055744488 0.0263893 -0.042650707 -0.05642404
0.00058054965 -0.040782765 -0.06398849 -0.035504546 0.014661598 0.052294027 0.048098586 0.03183904
0.007438223 0.04215575

fc3.weight f4 [2, 50]
00000000: 1a94 00bd 4c2c 2fbc a0f6 813d ae82 5c3d
00000010: f149 863d 2f3b 5fbd 5cce 813d b472 6b3d
00000020: 02fd cfbd 4f93 7e3d b781 9f3d ca26 30be
00000030: 54ef 8c3c f0af f13a 5e09 083e 0b65 cebd
00000040: fd6d d3bd bdf6 cc3d 1161 ba3d 5de7 983d
00000050: 807e 543d 30dd 393c e247 32be 5588 f13d
00000060: 1818 933d 9a3a 1f3d d777 f43d 59a0 983d
00000070: 5378 983d ee02 a3bd 53d4 51bd d5a5 8dbc
00000080: bcc1 1b3e 29ef e0bd 6fb3 1e3d 31f4 c73d
00000090: f1c1 383e 55ac 0ebe aa90 d9bd 09ea 83bd
000000a0: 481c d4bd 4ac7 f33d 61b6 5ebd 8ab6 013e
000000b0: 1233 debc 2eff 153d 0fb5 b13d 8fce cbbd
000000c0: 8c61 99bc e68e 86bd a810 d53d 632b 0fbd
000000d0: 8a89 3fbd 5f2a debd 23b8 54bd 4a02 6f3d
000000e0: 80fb b9bd abe8 f93d 1c59 613c 2370 a7bd
000000f0: 1b9a 6c3c a7d8 40bc 1bf8 203e 7898 ebbd
00000100: d3ba 163d 54a9 cc3c ad98 00be 7a26 7dbd
00000110: fcad 6ebd 3cd3 273e fcd0 3d3e 8e3a e93d
00000120: eab0 d9bb b080 38bc d146 b0bc 9c37 59bd
00000130: 99cd 54bd 3baa 2cbd 2a93 3d3c 201f da3c
00000140: 3575 833d b75c 12be bafc 393d 0c7e 01bd
00000150: 3b23 19bd 89cc edbd 8237 493d 126a d53c
00000160: cabb c53c 51e1 f03c 300f 4e3b 7afd 903d
00000170: 31a4 843d 496c f0ba 82dc ae3d f094 adbd
00000180: 3d5f 203e 1501 b7bc 23a1 f93d baee 2d3d
-0.03139124 -0.010691714 0.06345868 0.053835563 0.06557072 -0.0544998 0.06338188 0.057482436
-0.10155679 0.062152203 0.07788413 -0.17202297 0.017203964 0.0018439274 0.13284823 -0.10077866
-0.10323713 0.10007999 0.09100545 0.07466004 0.051878452 0.011344239 -0.17410234 0.117935814
0.0718233 0.038874246 0.1193692 0.07452459 0.07444825 -0.07959543 -0.05122788 -0.017290989
0.15210623 -0.10983116 0.03874534 0.09763373 0.18042733 -0.13932927 -0.106232956 -0.06441123
-0.10356957 0.11903246 -0.05437315 0.1266729 -0.027123962 0.03662031 0.08677112 -0.09951507
-0.018723272 -0.065702245 0.104035676 -0.034953486 -0.046762027 -0.108479254 -0.05193342 0.058351792
-0.09081173 0.12202581 0.0137541555 -0.08175685 0.0144410385 -0.011770404 0.15719645 -0.115036905
0.036799263 0.024983086 -0.12558241 -0.061804272 -0.058271393 0.16389173 0.18536752 0.113881215
-0.0066434043 -0.01126115 -0.021518143 -0.05303155 -0.051953886 -0.042154532 0.011570731 0.02662617
0.0641884 -0.1429318 0.045407034 -0.03161435 -0.037387114 -0.116112776 0.049125202 0.026051555
0.024137396 0.029404314 0.0031442158 0.07079597 0.064766295 -0.0018342818 0.08538152 -0.08475673
0.1566133 -0.022339383 0.121889375 0.042463996

fc3.bias f4 [2]
00000000: c347 5b3e 66e5 03be
0.21414094 -0.12880477
