clip_images/CNN_model_best_model.pt (torch, 568007 bytes, 10 tensors)

conv1.weight f4 [10, 1, 3, 3]
000000 bc 0a 69 3e 10 bf a7 bd 58 0b c9 3d 8b 94 f7 bd
       0.22758001 -0.08190739 0.09816617 -0.12088879
000010 c7 6a de bd 09 ec 03 be 55 80 64 be 5e ef 6f be
       -0.1086021 -0.12883009 -0.2231458 -0.23431155
000020 b7 e5 4e bc 50 2d 13 be f0 e0 77 bd 7f 29 14 3e
       -0.0126280105 -0.14372754 -0.06051725 0.14468955
000030 ea d8 cf be 0b 37 02 be fb 2c f2 bc b2 8a 79 be
       -0.4059518 -0.1271631 -0.029562464 -0.24369314
000040 a3 98 18 3c 90 21 17 3e cb 80 f2 3e 76 73 03 3f
       0.009313735 0.14758897 0.47363886 0.51348054
000050 6a 5d 69 3e 9a a7 18 bf 4a 38 72 be 27 0c bd be
       0.22789541 -0.5963074 -0.23654285 -0.36923334
000060 b2 bf 0a be d4 91 4f bd 09 3a 14 bd 9a 8d a3 be
       -0.13549688 -0.050676182 -0.03618816 -0.3194397
000070 b4 61 09 be 2e c5 ae 3c ee 81 9c be c1 f7 d3 bd
       -0.13416177 0.021334257 -0.30567878 -0.1034999
000080 eb 57 0a be 89 ab e0 3d 63 2c 6e be 9f 1d 80 3e
       -0.135101 0.10970218 -0.2325912 0.250226
000090 59 4b d5 3c b3 86 f1 be 02 83 32 be 34 49 31 be
       0.026036905 -0.4717308 -0.17432788 -0.17313081
0000a0 8d c7 ac be 22 ec 1e be 7d 4a 6e 3d 33 4f bd 3e
       -0.33745995 -0.15519765 0.058176506 0.36974487
0000b0 3f d4 b3 3e f1 e9 64 be e6 df 10 3e 39 7a 1d bc
       0.35122868 -0.22354867 0.1414791 -0.00961166
0000c0 7e d1 82 be 2d c2 83 3c db 99 35 be 1a fe b4 bc
       -0.25550455 0.016083801 -0.17734472 -0.022093821
0000d0 a7 00 8c be ef f8 3a 3e 39 8d 92 be b9 53 3b be
       -0.27344248 0.18259023 -0.2862337 -0.18293656
0000e0 ac 9e 5e 3e 9f 84 b6 3d 0a 8b 20 be 84 ca 5e 3e
       0.21740216 0.08912014 -0.15678039 0.21756941
0000f0 8d a9 e2 bd 24 a5 90 be 60 c9 7c bd c4 4b a4 3d
       -0.110674955 -0.28250992 -0.061715484 0.08022264
000100 45 d6 88 be b2 aa cc bd e0 b8 5e be aa f5 3d 3c
       -0.26725975 -0.09993495 -0.21750212 0.011594215
000110 4e 70 5a be ae 9e e3 bd 9e 46 67 3e 56 02 04 be
       -0.21331903 -0.1111425 0.22585532 -0.12891516
000120 4e e2 df bc cf e2 9e be b2 78 37 be af 18 92 be
       -0.02732959 -0.31032416 -0.17917135 -0.28534457
000130 b6 63 92 be e2 b7 e6 3d 4b 07 46 be 13 c6 4b 3e
       -0.28591698 0.112655416 -0.1933872 0.19899778
000140 e4 41 e9 3c f6 04 c0 be 7b 0b 90 bc 92 a8 94 3e
       0.028473802 -0.37503785 -0.0175836 0.2903486
000150 33 3a 12 be e0 6e ce be 6a e0 fb 3e 25 fe 04 be
       -0.14280014 -0.40318966 0.49194652 -0.12987573
000160 1c 74 55 be f6 b5 85 3e
       -0.20845073 0.26115388

conv1.bias f4 [10]
000000 6e f3 85 bc 0a ce bb bd f7 4e a2 3e e7 81 38 be
       -0.016351428 -0.09170158 0.3170087 -0.18018304
000010 5c 2c e5 3c 35 2e a3 be 5d c9 73 3e fc 61 f3 bd
       0.027975254 -0.3187119 0.23807283 -0.118839234
000020 1e 27 0e be b1 28 92 be
       -0.1388211 -0.2854667

conv2.weight f4 [20, 10, 4, 4]
000000 7d 83 87 bd f8 04 b3 3b 5c be 1b bd 10 b9 0a 3d
       -0.06616876 0.005463239 -0.038023338 0.033867896
000010 58 8e a5 3c dc 2b d8 3b e1 10 2c bd c2 bf 0b 3d
       0.020209476 0.0065970253 -0.042008284 0.03411842
000020 ec 10 78 3d d3 4a 84 3d 9f 18 a0 bb 2f 4e bd 3b
       0.060563013 0.06459584 -0.0048857476 0.0057771425
000030 31 10 44 bd 65 85 2f 3d 7c 70 1d bd b5 8c 76 bd
       -0.047867004 0.042851824 -0.03843735 -0.060192782
000040 19 a0 ff bc f1 07 9b 3c b3 fe b8 3c 2d c7 d5 3c
       -0.03120427 0.018924685 0.022582388 0.026095951
000050 62 51 62 bd 47 8e 85 bd c8 d1 ac bd 10 58 05 3d
       -0.055253394 -0.06521278 -0.0843845 0.032554686
000060 08 6c 9b bd 96 a3 a7 bd 4a b4 11 bd 4c 1a 74 bd
       -0.07588965 -0.081854984 -0.035572328 -0.05959539
000070 1b 38 2f 3d 8b 07 17 3d d2 41 f9 bc 95 28 a2 bd
       0.042778116 0.036872428 -0.030426893 -0.07917897
000080 4d 3c a2 bd 56 e3 b9 bd 81 b7 a4 bd bf 3f 64 bd
       -0.07921658 -0.09076564 -0.08042813 -0.055724856
000090 3d 7b 02 3d 76 2f 4b bd 70 b1 ef bd 76 6e 0d bc
       0.03185581 -0.04960581 -0.117037654 -0.008632293
0000a0 70 b5 c5 3d da e4 f3 bc 21 32 05 bd f9 6d 90 bd
       0.09653747 -0.02977221 -0.03251851 -0.070522256
0000b0 9c 9d 83 3c 17 1c 22 3d 50 65 42 bd 70 fc a0 bd
       0.016066365 0.03957757 -0.0474599 -0.07860649
0000c0 64 3b 48 bd e3 70 ad 3d 7f 14 58 3d c6 da 54 bd
       -0.048884764 0.08468797 0.05275392 -0.05196645
0000d0 3a 8d 5e 3d 87 61 14 3d a3 b5 20 3d 99 62 4e 3c
       0.054333903 0.03622582 0.039235722 0.01259675
0000e0 16 19 58 3d 5c 03 7f bc 4f 3a 6a bd 9f 1e 5c 3b
       0.0527583 -0.015564766 -0.057184514 0.0033587588
0000f0 2b 25 d2 3c 86 4b 71 3d 17 78 11 bd e2 d2 63 3d
       0.025652489 0.058909915 -0.035514917 0.055621035
000100 27 e7 f7 bc 77 a7 c7 bc 14 53 84 3c 69 63 8b 3d
       -0.03026159 -0.024371846 0.016152896 0.0680607
000110 91 32 44 3d ba 8c 47 3d a3 b8 b2 3b 71 2e e1 3b
       0.047899786 0.04871819 0.0054541393 0.0068719913
000120 15 a3 b4 bd dd a2 94 bd a6 38 8c 3b 12 f5 82 3b
       -0.08820168 -0.07257626 0.004279214 0.0039965
000130 3a 22 09 3d e8 8b 9c 3b 4b 23 b7 bd 4c 36 8f 3c
       0.033479907 0.0047774203 -0.089422785 0.017481945
000140 d9 6c 48 3d 37 4a 95 3d 83 f3 88 3d 5c b4 64 bd
       0.04893193 0.07289546 0.06687071 -0.055836067
000150 50 40 99 bb 1b 61 0a bd 39 3c 9b bd c0 8d 0d bd
       -0.004676856 -0.033784013 -0.07579846 -0.03455901
000160 af 88 08 bd cd 40 23 ba 6c 4f 0b 3d c7 37 db bc
       -0.033333477 -0.00062276126 0.03401129 -0.026759995
000170 da 6a 8d bc c5 dd 5b bd b2 c7 94 bd f1 71 6e 3d
       -0.017262865 -0.053678293 -0.07264651 0.05821413
000180 37 9f 37 3a 3a ce ab bd 81 12 79 3d 5e 58 d3 bb
       0.0007004621 -0.08388944 0.060808662 -0.006449743
000190 a0 99 b6 3c 8c 50 71 3d 2b 48 3c 3d c2 c1 9e bd
       0.022290051 0.058914706 0.045967262 -0.077518
0001a0 44 bc e8 3b 7e 18 a8 bd 76 75 48 3d 92 9c 50 3b
       0.007102521 -0.082077965 0.048940144 0.0031831604
0001b0 a4 4b 74 3c 67 94 e8 bc 79 8e 86 3d 33 a1 b5 bd
       0.014910612 -0.028391076 0.06570143 -0.08868637
0001c0 12 2f 97 3d 22 46 4d bd 07 67 14 3d 84 7c 86 bd
       0.07382025 -0.050115712 0.036231067 -0.06566718
0001d0 62 85 3e 3d fb 1a 94 bd ca 18 7d bd e0 92 19 3c
       0.046513923 -0.072317086 -0.06179122 0.009373397
0001e0 f9 6f 38 3c fc eb 8c bd cb 08 6a bd 69 f2 09 3c
       0.011257165 -0.06880948 -0.057137292 0.0084196115
0001f0 b8 6e 11 bd d3 ba 1a bd 4e 34 80 3d ea 41 82 bc
       -0.03550598 -0.037775826 0.06259976 -0.01590057
000200 b7 1d 07 bd 0b 49 1d 3d d6 34 10 3d f3 0e b7 bb
       -0.032987323 0.038399737 0.03520664 -0.005586499
000210 92 f3 b3 ba e1 4e 39 bd b5 8e 7c 3d f6 3a ad bc
       -0.0013729206 -0.04524124 0.061659534 -0.021146279
000220 c9 09 1e 3c 6b 53 22 bd 6c d7 d2 bc 78 fa dd 3c
       0.009645888 -0.039630335 -0.025737487 0.027096972
000230 80 6c 03 bd 43 48 80 3d 36 d2 54 bd 1a e2 85 3d
       -0.032085896 0.06263783 -0.051958285 0.06537266
000240 9a d5 04 bd 64 6b 23 bd bf 17 0f bc 35 33 27 3e
       -0.03243027 -0.039897338 -0.008733689 0.16328128
000250 f1 25 df bd 9a c6 03 bd e0 f4 3b bd e0 1b 66 3d
       -0.108959086 -0.032171823 -0.045887828 0.056178927
000260 61 97 00 bd 96 39 ad 3c 51 87 7a 3c 01 f2 36 be
       -0.031394366 0.021145623 0.015291051 -0.17865755
000270 23 23 50 bd fe 9e e1 bc ea 41 1c 3e 65 ed 8a bd
       -0.05081476 -0.027541634 0.15259519 -0.06783561
000280 c1 3a 8a 3c a1 67 24 3d e7 1a 80 3c 54 d1 0e bd
       0.01687372 0.04013789 0.015637828 -0.0348676
000290 51 32 49 3c 73 50 17 bd a2 96 55 3d 0c 1d c9 3c
       0.012280063 -0.036941957 0.052145608 0.024549983
0002a0 36 85 85 bd 2b 73 41 bd 3d 53 bd 3c c0 c4 0d 3d
       -0.065195486 -0.047228973 0.02311098 0.034611464
0002b0 c6 9a 30 3d 47 d2 28 bd d7 ed 69 bd 22 ec aa bc
       0.043116353 -0.04121616 -0.057111587 -0.02086455
0002c0 5b 4c 51 bd 6f e6 3e bc f2 2b f1 bc 6d 48 99 bd
       -0.05109821 -0.011651619 -0.0294399 -0.07484517
0002d0 bf 80 0e 3d cc ce c7 3c 13 c5 16 3d 23 5b a0 bd
       0.03479075 0.0243906 0.03680904 -0.07829883
0002e0 bc fb f4 bc 4a 00 ed 3b a6 d7 23 bd fb f9 64 bd
       -0.029905193 0.0072327005 -0.04000058 -0.055902462
0002f0 d8 80 ea bc a3 4e d8 3c 57 68 0c 3d 69 4e b4 3d
       -0.02862589 0.026404684 0.034279194 0.08804018
000300 2c e5 b8 3c 87 5c 2d 3d 5a 95 b6 3d da f8 9e 3b
       0.022570215 0.04232457 0.08915205 0.0048514428
000310 3e 6b 05 bd 39 d3 e8 bd 92 bd af 3b b1 07 5b bd
       -0.032572977 -0.113684125 0.0053631747 -0.053474132
000320 60 e1 65 bd 60 68 a1 bd 19 70 91 3a 7c 3c e3 3c
       -0.056123137 -0.07881236 0.001109603 0.027738802
000330 c2 91 81 bd c9 6e ac bd 81 21 a2 bd 17 70 51 bd
       -0.06326629 -0.08419568 -0.079165466 -0.051132288
000340 69 bc 18 bd 92 a6 53 3d 44 56 7f 3d 65 e4 41 3d
       -0.037289057 0.051672526 0.06233813 0.047336955
000350 d7 e7 1a 3d 8b 9a 81 3c 90 0a 90 bd fe d7 0a 3c
       0.037818756 0.015820762 -0.07033265 0.008474348
000360 9c de 35 bd ce 4a 8c bd 14 de 74 3d 29 8e cb bc
       -0.04440175 -0.06850205 0.059782103 -0.02484806
000370 d0 6d cd 3c 96 be a5 3b fe 2a 04 3b 34 d8 86 3c
       0.025076777 0.00505812 0.0020167227 0.016460516
000380 ca 6f d8 3d c8 e4 b9 3a b9 6b 5b 3c 2f 18 f9 3d
       0.10568197 0.0014182562 0.013392382 0.12162816
000390 8f 46 aa 3c c9 ac e3 3b c7 4f 8f bd 3d 4f 02 bd
       0.020785598 0.006948088 -0.06997638 -0.03181385
0003a0 86 69 90 bd 39 dd 95 bd 3e 8a c2 bd 06 db 83 bc
       -0.07051377 -0.073175855 -0.09499024 -0.01609565
0003b0 ac 04 bf bd 11 f1 c1 3c 45 0b 8e bd de d4 a3 bd
       -0.09327063 0.02367452 -0.06935743 -0.079995856
0003c0 35 e5 15 bd 0d f1 7c bd 3f eb 1f bd eb d9 ea bc
       -0.036595542 -0.06175332 -0.039042708 -0.028668365
0003d0 97 a4 7f bd ca c8 1b bd 70 d9 77 bd 66 cd 50 bd
       -0.062412824 -0.038033284 -0.0605101 -0.050977133
0003e0 0b 3c 9a bc d4 59 8e bd b3 03 59 bd 06 90 4b 3d
       -0.018827459 -0.06950727 -0.052982043 0.0496979
0003f0 e6 95 97 bd a8 09 47 3d 33 10 01 bc 15 b2 c0 bc
       -0.07401638 0.048593193 -0.007877397 -0.023522416

conv2.bias f4 [20]
000000 05 46 35 3d f7 50 75 bd 62 a7 fb 3b a6 a3 3d 3d
       0.04425623 -0.059891667 0.0076798657 0.046298645
000010 50 e4 3b 3d 9d 29 67 3d d6 b2 51 bd ce c0 9b bb
       0.045872033 0.05643617 -0.051195942 -0.0047532087
000020 60 6e 19 3b 32 2f 07 3d 95 86 2d bd 3f b0 b1 3d
       0.0023411736 0.033003993 -0.042364676 0.086761944
000030 70 ad 15 bb 1e 12 56 bd 2b be 55 bd 59 22 92 3d
       -0.0022838973 -0.05226337 -0.05218331 0.071354575
000040 64 be b4 bc c0 b2 93 3d b4 f0 aa bc 04 a5 6a bd
       -0.022063442 0.07211828 -0.02086673 -0.057286277

fc1.weight f4 [250, 500]
000000 26 f9 35 bd 97 05 0b 3d 96 5f ca 3c 6b e1 14 3c
       -0.04442706 0.033940878 0.024703782 0.009086947
000010 26 cd 43 bc 00 5a ed bc 1d 9f 51 3b f7 49 8c 3c
       -0.011950767 -0.02897358 0.0031985708 0.017125113
000020 84 34 56 bc e6 3e c6 ba 3b 39 c6 3b e2 b5 03 3d
       -0.013074044 -0.0015124946 0.006049303 0.03215588
000030 b5 7d 78 3c fd 02 1f bc 28 73 15 bc 4c ef 75 3c
       0.01516669 -0.009705302 -0.009121694 0.015010666
000040 a9 f1 ff 3c c5 46 67 3c 6d 9c 62 bc 29 5b 15 bd
       0.031243162 0.014115994 -0.01383124 -0.03646389
000050 cf 97 f6 bb ff 12 3e 3c fd 28 0b bd ed bc b8 bc
       -0.007525421 0.011601209 -0.033974636 -0.022551024
000060 73 30 62 3c 52 e1 6e 3c 4f 89 33 3d d7 84 26 3d
       0.0138054965 0.014580088 0.04383212 0.04065403
000070 f8 23 46 3d 24 60 07 bc 4f f8 80 3c a5 77 21 bd
       0.048374146 -0.008262668 0.015743403 -0.039420743
000080 4c a3 3e bc 23 af 24 bd 07 3b 2f bd 64 62 85 bc
       -0.011635613 -0.040206086 -0.042780902 -0.016282268
000090 80 4a 91 3c de 5f b2 3c 25 ff 8d 3c c3 d6 4e bc
       0.01773572 0.021774229 0.017333576 -0.012624445
0000a0 61 18 0c bd 76 21 28 bc be 0a 27 bd f1 cd 6f 3b
       -0.034202937 -0.010261884 -0.04078173 0.0036591257
0000b0 a0 05 01 bd 56 14 4e 3c c1 d2 9e bc b8 fb 25 3d
       -0.031499505 0.012578091 -0.019387605 0.04052326
0000c0 96 aa 22 3d 65 1a ef 3c 22 22 07 bd 67 23 b0 bc
       0.039713465 0.02918739 -0.032991536 -0.021501256
0000d0 03 2a fb bb 4e cb 4a 3c 92 ae 2c bd 5b 92 a5 bc
       -0.0076649203 0.012377573 -0.04215867 -0.02021139
0000e0 57 84 56 3c 20 37 26 bd 81 ba c0 bc 0f 93 f5 3c
       0.013093076 -0.040579915 -0.023526432 0.02997735
0000f0 26 68 30 3b c0 ac c7 3b b2 e7 03 bc 2d 3d e6 bc
       0.0026917546 0.0060935915 -0.008050846 -0.028105343
000100 44 bb 2e bd 4a c0 3c bd 6d 50 95 3c b5 59 a3 3c
       -0.04265906 -0.04608182 0.018226827 0.019940237
000110 f1 c6 d9 3b 9b d3 ab bb 09 51 5b bb e7 e0 b3 3b
       0.00664603 -0.005243731 -0.0033465049 0.005489457
000120 ec 28 ec 3c f7 21 33 bc 09 ba d1 3b 26 ff 87 bc
       0.028828107 -0.010933391 0.006400351 -0.016601156
000130 b4 9b d0 3c 67 f1 dd 3c d1 37 bc 3c 5b d7 f9 bb
       0.02546487 0.027092649 0.022975834 -0.0076245493
000140 3b d5 4c 3d ef be 04 3c c9 76 e6 3c e0 4f 6f bb
       0.05000804 0.008102163 0.028132813 -0.0036516115
000150 77 93 dc 3a 6b d0 bc 3c 1c 69 6f 3c 10 ef 36 3d
       0.0016828616 0.0230486 0.014612462 0.04466158
000160 8f cd 33 bd 7b e7 fd 3c 6a ed 95 3d ab b7 d0 bc
       -0.043897208 0.030994168 0.07320674 -0.025478205
000170 f2 e1 67 bc 51 fb a0 bc 75 93 a7 3b 0b ec 2f bc
       -0.014152991 -0.019651087 0.005114014 -0.010737429
000180 5c 7f b0 bc e5 9f f0 3c 91 5f 84 3c fd ff 20 bd
       -0.021545105 0.029373119 0.01615885 -0.03930663
000190 88 47 c7 bb 8c c5 0e 3d 30 ab 98 3a ce 9a 87 3c
       -0.0060815252 0.034856364 0.0011647698 0.016553309
0001a0 61 ca 03 bc 63 8f f4 bc 09 91 43 bb 7c 38 00 3d
       -0.008043856 -0.029853528 -0.0029841086 0.031303868
0001b0 9b 45 86 bc 84 a0 7e bc ed 12 cd 3b fb 66 c9 bc
       -0.016390612 -0.0155412 0.0062583596 -0.024585238
0001c0 cf bf 9f 3c 4e c4 08 3d d2 31 1c bb 5d 5a b3 3c
       0.019500641 0.033390336 -0.0023833406 0.021893675
0001d0 c8 9f 41 bd ac e4 0b 3b ba 4f 42 3c 7c b8 c0 bb
       -0.04727152 0.0021346016 0.011859829 -0.0058813673
0001e0 19 23 23 bd 39 88 1d 3d 7a 4a 17 bd 2e 09 a4 3b
       -0.039828394 0.03845999 -0.03693626 0.005005977
0001f0 8d 38 60 bc f2 38 e8 3b 85 e5 39 bd e1 9a 1d bd
       -0.013685358 0.0070868665 -0.045384903 -0.038477782
000200 6e 84 af 3b 0a f3 b9 3c 72 23 2d 3b a7 a3 1f bd
       0.005356363 0.022698898 0.0026418832 -0.03897443
000210 61 73 3f bd fe 4a b1 bc 1f 41 df ba a8 ef b0 3c
       -0.046740893 -0.021642204 -0.0017032957 0.021598652
000220 ce 0d 6e 3c 08 dd 0c 3d 42 e0 15 3b 2b c9 06 bd
       0.0145296585 0.03439048 0.0022869264 -0.032906692
000230 7d 2a 6f 3b 46 2d da bc 08 cd 21 bd 71 63 0a 3d
       0.003649383 -0.026632916 -0.039502174 0.03378624
000240 de 28 51 bc 46 ff a9 bc d7 46 a0 bc de 0a aa bc
       -0.012766091 -0.020751607 -0.01956503 -0.020757135
000250 5b 80 38 3c be 87 24 3d b1 df 14 bd 63 40 1e 3c
       0.011261071 0.040168516 -0.03634614 0.009658906
000260 ae 9d 4a bc 62 e3 c4 bc 0f 74 cd bc 58 db 5a bb
       -0.012366695 -0.024034206 -0.025079755 -0.00333949
000270 98 58 01 3d 2a 89 7f bb 24 ba 16 bd 6a bf 0b 3d
       0.03157863 -0.0038991668 -0.03679861 0.034118094
000280 71 10 01 3c 16 ad c1 3b c0 5b a1 3b 3e 0f 05 3b
       0.007877455 0.005910526 0.0049242675 0.0020303275
000290 a8 64 fd bc 33 dc 52 bd bd 27 36 bd 7a 04 18 3d
       -0.030931786 -0.05147953 -0.04447149 0.037113644
0002a0 b9 19 8b bc 85 0e 15 bd a1 7f 51 bd 3b b6 23 bc
       -0.016980039 -0.0363908 -0.051147107 -0.009992178
0002b0 e8 64 59 3c 61 74 b3 bb 5f 37 c0 bc e6 7d 44 bd
       0.013268687 -0.00547652 -0.023463903 -0.04797163
0002c0 c3 6a 70 bb 85 7a 46 3c 63 e5 e5 bc ad 98 b7 3c
       -0.0036684729 0.012114172 -0.028063482 0.022411669
0002d0 d9 46 8b 3c 6e 19 e0 3c 4b e3 78 bb 5f 25 e3 3c
       0.017001556 0.027355876 -0.0037977274 0.02772778
0002e0 a1 70 0d bd 9b 4d c7 bc 17 eb 07 bd d2 a5 29 bc
       -0.03453124 -0.024328997 -0.033183184 -0.010354476
0002f0 71 e0 12 bd 03 a0 86 3c a1 e7 c2 3b 1e c0 e9 bb
       -0.035858575 0.016433721 0.0059480225 -0.007133498
000300 b5 1e c4 3c 59 f6 c5 bc 30 5e d9 3c 19 40 03 3d
       0.023940424 -0.02416532 0.02653417 0.03204355
000310 ff af c7 3c 8f f2 00 bd 97 19 1a 3d 75 2b c3 3c
       0.024375914 -0.031481322 0.03762206 0.023824433
000320 b0 bb af 3b 66 81 af 3c 98 92 00 3d 3c 36 27 bc
       0.0053629503 0.021424007 0.031389803 -0.010205802
000330 0b f1 c5 3c 0a b4 29 3c a8 3e 30 bc 51 96 22 bd
       0.02416279 0.010357866 -0.010757126 -0.039694134
000340 7f 43 fe bb 01 74 ca 3a c1 59 4b 3c 3f 6e ce bc
       -0.007759511 0.0015445949 0.012411536 -0.025199054
000350 46 71 b8 3c d6 83 2f bd ec a2 5a bd 0f cf b8 bb
       0.02251495 -0.042850338 -0.05337803 -0.0056399177
000360 69 f8 35 3d 1c 07 96 3c f3 7f b1 3c f6 b2 34 3c
       0.044426356 0.018313937 0.021667456 0.011028996
000370 1f 39 11 3c d0 3d ac ba 68 b1 ab bc d6 f5 8a 3c
       0.008863716 -0.001314098 -0.020958617 0.016962927
000380 26 57 62 3a f3 25 05 bd 92 24 0e bd bf 3d 31 bc
       0.0008634202 -0.032506894 -0.034702845 -0.010817944
000390 50 cd 20 3c 9c af 0f bd 03 ce 13 3d a8 f9 18 bd
       0.009814575 -0.035079584 0.03608514 -0.037347466
0003a0 27 c1 49 bc 82 fa 2c bd d3 64 01 3d 0e a7 da bb
       -0.0123141175 -0.04223109 0.031590294 -0.0066727465
0003b0 7b 3b 06 ba 17 31 70 bc b7 81 6e ba 39 f9 dc 3c
       -0.00051205576 -0.014660141 -0.00090983085 0.026974307
0003c0 be d6 c0 bc 2d 36 d3 bb 25 22 04 bc 0e 80 26 bd
       -0.023539897 -0.0064456672 -0.008064781 -0.040649466
0003d0 11 93 c3 3c d4 43 26 bd dd f5 ca 3c 64 58 fa 3c
       0.023873838 -0.04059203 0.02477544 0.030559726
0003e0 87 17 3d 3d 65 e1 29 3d c3 04 18 bb e3 8f 18 3d
       0.046165016 0.04147472 -0.0023196198 0.037246596
0003f0 24 9e 38 3c 15 a3 55 bd 4e e4 08 bd 7b 2e cf 3c
       0.011268172 -0.05215748 -0.033420853 0.025290718

fc1.bias f4 [250]
000000 cb 96 33 bd 87 46 9b 3b 73 9a 40 39 bc 2d 01 bd
       -0.04384498 0.004738632 0.00018368084 -0.031537756
000010 24 29 67 bd 9f bc 20 3d 8d 62 07 bd 73 88 0b 3d
       -0.05643572 0.039242383 -0.03305297 0.034065675
000020 72 71 21 3c 96 7a 2d bb d3 0c 80 3c de 0a 0c bc
       0.009853708 -0.0026470772 0.015631115 -0.008547513
000030 04 21 40 bd f3 89 22 3a cb ae bb bc ef 30 0a bc
       -0.046906486 0.00062003656 -0.022910496 -0.008434518
000040 31 19 db 3c 30 b0 86 3c a5 70 3b bd 15 37 45 bd
       0.02674541 0.016441435 -0.045761723 -0.048148233
000050 40 c7 80 bc de 6e 1b 3c d2 73 07 bd 40 c4 0e 3d
       -0.01572001 0.009486882 -0.03306944 0.034855127
000060 1a 6d 4a 3c 08 d4 98 bc 53 56 a5 bc d1 93 70 3c
       0.012355113 -0.018655792 -0.020182764 0.01468368
000070 d6 c3 29 bc 32 3a 9b bc c1 f8 49 bd 75 fb b9 3c
       -0.010361632 -0.018948648 -0.049309496 0.022702912
000080 63 dc e1 bc 84 bf d1 bc f2 fc d2 bc 03 74 43 bc
       -0.027570909 -0.025604017 -0.02575538 -0.011929515
000090 20 71 25 bd 3d 2d 63 3c 25 34 88 3b 0e 15 c3 3c
       -0.040391088 0.013865766 0.0041566067 0.02381375
0000a0 c1 c6 ba 3c 90 1c 7c bc e5 2a 13 3c ac 1a 33 3d
       0.022799851 -0.015387669 0.008982395 0.04372661
0000b0 0d 93 cc bc 07 70 1f bd 68 51 d7 bb fc d3 bc 3c
       -0.024972463 -0.038925197 -0.0065709837 0.0230503
0000c0 52 e5 1e 3d ef e9 35 3d 00 77 86 ba 00 91 d6 3c
       0.038792916 0.04441255 -0.0010258853 0.026192188
0000d0 f0 6d b9 3c 36 a4 97 3c 11 c7 2d bd ce a2 9f 3c
       0.02263543 0.018510919 -0.042426173 0.019486811
0000e0 4a bb f9 bc 1c 0d 2e bd 15 13 21 3c 4f 19 09 3c
       -0.030484814 -0.04249297 0.00983121 0.00836785
0000f0 4d 08 0f bd 7f 8f e4 bc 39 13 e9 3c 5c 12 c5 3b
       -0.034920026 -0.027900456 0.028451549 0.0060141515
000100 9d de 04 3c 18 bf 03 bd c6 7d fc 3c c7 50 0d bd
       0.008109716 -0.032164663 0.030821692 -0.034500863
000110 a2 a4 02 3b b3 21 e7 3c 17 39 29 bc 63 5b 37 bd
       0.0019934555 0.028214311 -0.010328553 -0.044764888
000120 36 cb b3 3c 37 b8 3d 39 44 f9 01 bd c8 e4 22 3b
       0.021947484 0.0001809307 -0.03173186 0.0024855603
000130 9a 0c e2 3a 78 a3 20 bb 65 a3 46 bc 5f 29 25 bd
       0.0017246187 -0.0024511497 -0.012123917 -0.040322658
000140 82 71 1b bd c4 de 31 bd ea 87 ec 3c 01 6d 6a bb
       -0.037950046 -0.043425336 0.028873403 -0.0035770538
000150 07 c2 5e bc be 4e 57 bb dc d5 de 3a 1a f7 06 3d
       -0.013596064 -0.003285333 0.0017000991 0.0329505
000160 2a 59 b5 3c ea be 34 bc b1 9d dc bb 3a d3 cd 3a
       0.022137243 -0.011031846 -0.0067326655 0.0015703209
000170 72 be 31 bd 6d b3 95 3c 61 01 8e 3c ac cf 4e bc
       -0.043394513 0.018274033 0.017334642 -0.012622755
000180 c9 75 6a 3d 54 b5 46 3c 88 3f 31 bc cf ae 0f 3d
       0.057241235 0.012128193 -0.01081837 0.03507882
000190 02 af 18 bd 85 a8 5f 3b 7a 08 a3 3c 4a 68 c1 3c
       -0.037276275 0.0034127545 0.019901503 0.0236093
0001a0 48 72 74 bb 8c f3 1b bb 35 b4 3e bd d6 01 d2 3c
       -0.0037299562 -0.0023796288 -0.046558578 0.025635641
0001b0 41 dd cc 3c 22 d8 0a bc c1 f0 2e bd 9a e0 ce 3c
       0.025007846 -0.008474382 -0.04271007 0.025253583
0001c0 ae 76 0e 3d 85 be be 3c 52 d5 f4 3c 8a 9f 04 3d
       0.03478115 0.023284206 0.029886875 0.03237871
0001d0 4c e9 03 3d b2 77 41 3b c5 96 cb bc 82 55 35 3d
       0.03220491 0.0029520807 -0.024852166 0.044271
0001e0 03 05 fd 3c 0b 5d 1e 3c 17 38 be bc 41 ed 94 bc
       0.030886179 0.009665738 -0.023220105 -0.018179538
0001f0 6d a9 26 bd 30 36 74 3c c6 bc 76 3c fb bd d8 bc
       -0.04068892 0.014905497 0.0150596555 -0.026457777
000200 d0 d3 60 bc ea 23 74 bc 19 78 f3 3c ca aa 52 3d
       -0.013722375 -0.014901141 0.029720353 0.05143241
000210 c7 4b e7 3c fc 10 23 3c fb 82 19 3d 2e 80 84 bc
       0.028234376 0.00995278 0.03747843 -0.016174402
000220 0f ed ff 3c 94 5d 01 3c d0 c7 99 3c 2e b3 f5 3b
       0.031240968 0.007895846 0.018772036 0.0074981665
000230 5c 33 06 3c ed 87 01 3c cc 8b d6 bc 26 de e3 3c
       0.008190956 0.007905942 -0.026189707 0.02781589
000240 98 7d be 3b 6f c1 24 bd 82 7b 21 bd 74 83 c0 3c
       0.005813312 -0.040223535 -0.039424427 0.023500182
000250 0e 8c 34 bb 07 05 05 bd 28 ce 19 3d d6 10 43 bd
       -0.00275493 -0.032475498 0.03755012 -0.047623478
000260 d2 2a 10 bd 05 d7 f0 bc b4 cb 02 bb 7f 59 85 3c
       -0.035197087 -0.029399404 -0.0019957842 0.016278027
000270 8c d6 9a bc ba 42 75 bc 23 3b 9e 3c 82 3c e3 3c
       -0.018901132 -0.014969522 0.019315308 0.027738813
000280 3e e7 aa 3c 49 33 2f 3c f4 37 7e bc e2 9e 32 bd
       0.020862218 0.01069338 -0.01551627 -0.043608554
000290 78 df 28 3d 03 9d 1c 3d 46 25 64 bc 70 42 41 bd
       0.04122874 0.038235676 -0.013924902 -0.0471825
0002a0 cb 47 a4 3b 37 90 06 bd dd 78 1f bd 2a 63 36 bd
       0.005013441 -0.032852378 -0.038933624 -0.044528164
0002b0 10 95 d5 bc 86 28 80 bb c7 1d cf bc 43 34 60 bb
       -0.026072055 -0.003911081 -0.025282754 -0.0034210838
0002c0 ee 5c 66 bc ab eb 86 3c 6b 25 13 3d e1 bd 0c 3b
       -0.014060242 0.016469797 0.035924356 0.0021475481
0002d0 ef c6 e2 bc 87 2e 94 3a f1 51 15 bd 0d f7 05 3c
       -0.02768275 0.001130537 -0.0364551 0.008176577
0002e0 9a 11 d4 bc 2d 3a 93 bc 77 c9 6a 3b b1 63 b6 3c
       -0.0258873 -0.017972076 0.0035825649 0.022264333
0002f0 f5 e8 18 bd 13 3d 52 bd 5a 2b 97 bc a9 20 51 3d
       -0.03733154 -0.051327776 -0.018453289 0.051056538
000300 e1 ff 95 3c 55 5f 9e 3c ec 9e 34 3d 14 85 79 3c
       0.01831049 0.019332567 0.044096872 0.015229482
000310 bb 6d ba 3c 4e 00 23 bd 72 a2 c2 bc 82 33 1f bd
       0.022757402 -0.039795212 -0.0237591 -0.03886748
000320 9e 13 d1 3c 2c 95 29 3d 17 a1 03 3d 06 ac 17 bd
       0.02552205 0.041402027 0.03213605 -0.03702929
000330 ca d5 27 bd d1 e9 03 bd 35 89 34 bd 67 56 43 3c
       -0.04097537 -0.032205407 -0.044076163 0.011922455
000340 84 30 2f bd 89 2d dc bb 0e d2 1e bd c7 9f 81 bc
       -0.042770877 -0.0067192954 -0.038774543 -0.015823258
000350 8b 83 b2 3c 60 85 0c bd 90 a4 fa bc 66 41 1b 3d
       0.02179124 -0.034306884 -0.030596048 0.037904166
000360 00 f2 df bc f8 38 0a bd 8b ab e9 bc cb cc 17 3d
       -0.027337074 -0.033745736 -0.02852418 0.03706054
000370 be 54 96 bc 59 f3 1e 3b 1f dd 12 bc 63 c5 b4 3c
       -0.018350955 0.0024253933 -0.008963852 0.022066778
000380 4d 69 68 bd ba 8a 10 3d 56 cc 3d bd d6 d4 20 bc
       -0.056741048 0.03528855 -0.046337448 -0.009816369
000390 1a ed 2a bc 1c 97 89 3c 76 f0 00 3c 4b 25 1c bd
       -0.010432506 0.016795687 0.00786983 -0.038121503
0003a0 f4 a1 16 bc 22 7e 56 3c 00 ac 00 bd 41 4c 5b 3c
       -0.009193886 0.013091596 -0.031414032 0.01338488
0003b0 84 6d e9 bc ee c6 0b 3d f7 5e b7 3c 8e b2 72 bc
       -0.028494604 0.03412526 0.02238415 -0.014813079
0003c0 b0 5a c0 3c 74 d9 5a bc a2 90 14 bd 46 64 4d bc
       0.023480743 -0.013357509 -0.036270745 -0.012536114
0003d0 24 19 c1 3a 62 fb d8 bb 14 83 bf bc 9b 26 b3 bc
       0.0014732224 -0.006621764 -0.023377933 -0.021868994
0003e0 d3 21 1b 3d 81 eb 84 3c
       0.037874054 0.016225578

fc2.weight f4 [50, 250]
000000 ae 97 d4 3b f8 0e a6 3c f9 21 12 3b a9 71 03 bd
       0.006487808 0.02027081 0.0022298081 -0.032090817
000010 c7 c0 57 bd 25 07 97 bc 16 59 c1 bb a2 3a 2c 3d
       -0.05267408 -0.018436024 -0.0059005124 0.042048104
000020 6d b6 fd bc 74 3f 0e bc f2 08 ab 3d 12 49 3c 3d
       -0.030970776 -0.008682121 0.083513156 0.045968123
000030 48 ee 1a 3c 1a b3 82 3d af 57 28 bd 99 64 1f 3c
       0.009456225 0.06381817 -0.041099247 0.009728574
000040 6a 37 80 3d 39 a7 2d bc c5 00 84 3c 6c bf 27 3d
       0.062605694 -0.010598951 0.016113648 0.04095404
000050 08 00 10 bd 8e 96 44 bd 99 e8 6b bd fb b1 59 3d
       -0.03515628 -0.047995143 -0.05759487 0.05314825
000060 70 c3 2a bc 2a b7 38 3c 50 c2 57 3d 67 b5 5e 3d
       -0.0104225725 0.011274138 0.052675545 0.054372218
000070 82 e1 58 bd 70 67 a6 3c bb f6 0b 3c 32 12 ed bb
       -0.052949436 0.020312995 0.008542712 -0.007234835
000080 a0 e1 58 bd bc 32 46 bc d7 fc 66 bc de 75 23 3d
       -0.052949548 -0.012097057 -0.014098368 0.03990733
000090 d7 b5 90 3c fe 81 19 bd 34 b0 0c bd 18 df 81 3d
       0.017664833 -0.037477486 -0.034347728 0.0634138
0000a0 31 a8 3d 3d 3b 26 ff bc 32 ca 87 bd f0 34 59 3d
       0.046302978 -0.03114616 -0.066303626 0.053029
0000b0 0a 55 08 bd 74 c7 0b bd b7 8f e4 bc f0 0d 13 3c
       -0.033284225 -0.03412576 -0.02790056 0.008975491
0000c0 c8 a0 0a 3d a4 c6 cd bb 1b a8 25 bd 50 40 ba bb
       0.03384474 -0.0062797833 -0.04044352 -0.005683936
0000d0 36 e9 64 bc 77 b2 c9 bc f1 e1 0b bd 97 3a c9 bc
       -0.013971617 -0.024621231 -0.03415102 -0.02456407
0000e0 d9 bd 42 bd 9d 22 df bc 96 fc 2e bd 21 ad 15 bd
       -0.047544334 -0.027238185 -0.042721353 -0.03654206
0000f0 bb dd 3c 3d b5 c9 9e 3c 47 e4 9b bc af ab 6d bd
       0.046109896 0.01938329 -0.01902975 -0.05802506
000100 39 56 2d 3d 59 0a 0a bb 11 e7 62 3d 1b 2b cd bc
       0.042318556 -0.0021063297 0.055396143 -0.025044968
000110 90 79 16 3d 76 95 7a bd 7c 2e 3a 3c 43 f7 56 3d
       0.036737025 -0.061177693 0.011363622 0.0524819
000120 60 02 37 3d 55 f7 47 bc 8c a4 36 3d 10 91 c2 bb
       0.04468 -0.012204965 0.044590518 -0.005937703
000130 cf 38 4e 3d 50 c6 5a bd 5e 08 12 bd b5 eb 8b 3c
       0.050347146 -0.05341178 -0.03565251 0.017080167
000140 1a bb 3f 3d d5 85 a2 3c a8 e6 a5 bc 57 28 68 bd
       0.046809293 0.019839207 -0.020251587 -0.056679096
000150 42 21 ab bb 13 5f 4b 3d 16 ea 37 3c 1e e7 ea bb
       -0.0052224705 0.049651217 0.011225244 -0.0071686646
000160 1f d5 56 bd 12 0e 92 3d ac 0f 2b bd 88 e3 5b 3a
       -0.052449342 0.0713159 -0.041762993 0.0008388092
000170 d2 91 c9 bb c3 4c 1b bd 50 a2 5f 3d fe 86 7b 3d
       -0.0061514163 -0.037915003 0.054598153 0.061408035
000180 f8 f3 58 3d f4 69 1f 3d c3 a3 45 bc 09 d0 e6 3c
       0.05296704 0.038919404 -0.01206297 0.02817537
000190 23 fc 9f bc 70 53 4f bd c2 b3 5d bc 70 7c 59 3d
       -0.019529408 -0.05061668 -0.013531627 0.05309719
0001a0 1e 39 0b bd aa 3f 9c 3c 41 a6 ac bc d6 63 d5 bb
       -0.033990018 0.019073326 -0.02107537 -0.0065121455
0001b0 9d f6 8a bc 1e ad 48 bd f3 2e aa 3c c9 76 0e 3d
       -0.016963298 -0.048993222 0.02077434 0.03478125
0001c0 49 c7 4d bd 53 09 d6 bb 4a 57 bb bc 8b 82 21 bd
       -0.05023888 -0.0065318733 -0.022868771 -0.039431136
0001d0 d8 98 7d 3c 6a a0 88 bc de 74 68 bd 17 bf 6b 3d
       0.015478335 -0.016678054 -0.05675208 0.057555284
0001e0 0e d4 60 bd 3c d1 11 bc f4 fc 43 3d 92 8a b0 3c
       -0.05488973 -0.008899983 0.047848657 0.02155045
0001f0 3e 36 dd bc e5 66 fa ba 1d c2 23 3c 06 9e 9b 3c
       -0.027003404 -0.0019104151 0.009995011 0.01899625
000200 68 f7 65 3d b2 48 a6 3c 8c 8a cf 3c 95 aa 9d 3c
       0.056144148 0.020298336 0.025334619 0.019246379
000210 f7 bd 21 bd e4 b2 0e 3d 88 61 ac 3c 37 1f c5 bc
       -0.039487805 0.034838572 0.0210426 -0.024062736
000220 4d 27 66 3d 41 53 25 bc 2e 07 e1 bc 54 18 ad 3c
       0.056189824 -0.01009065 -0.027469244 0.021129765
000230 29 5a a0 bd ec 2f 51 bd 66 9f 43 3c 25 2f 1f bd
       -0.07829697 -0.051071092 0.011939859 -0.03886332
000240 75 93 11 bd 11 ff 0d bd 9f 96 3a 3c a6 70 1a 3d
       -0.035541017 -0.03466708 0.01138845 0.037705086
000250 ac f1 58 bd e3 b0 97 3d ec 42 a1 3d a6 4e 8f 3d
       -0.05296485 0.07406785 0.078740925 0.06997423
000260 8c 46 25 3c 7f 6d 5a 3d a9 4d 4a bd 7e d7 77 bd
       0.0100876205 0.05332708 -0.04939047 -0.060508244
000270 3a 93 59 bc e2 ed 98 3c ef 37 a7 bc ea 04 a4 bd
       -0.01327973 0.018668119 -0.020412413 -0.0800875
000280 a5 7f d9 3c f9 1f 88 3b 5a 94 90 bd 6e 4e ec bc
       0.026550123 0.004154202 -0.07059546 -0.028845992
000290 43 04 d2 bc 81 f3 40 3c 2d 8b 70 3c f4 74 aa 3b
       -0.025636798 0.011776806 0.01468162 0.00520193
0002a0 6e 6f 37 bd 36 ed a3 3c 41 13 0d 3d 7a e7 8a 3d
       -0.044784002 0.020010572 0.03444219 0.06782432
0002b0 b0 82 15 3d 41 f7 45 3d aa 34 7e bd 6b 6f 4d 3d
       0.036501586 0.048331503 -0.062061943 0.050155085
0002c0 b9 a5 e7 3c c8 95 1d bd bd af 26 3c 09 d9 61 3d
       0.028277265 -0.03847292 0.010173735 0.05513862
0002d0 59 52 2d bd 47 08 fc 3c 89 21 41 bd e1 99 03 bd
       -0.04231486 0.030765666 -0.047151122 -0.032129172
0002e0 d9 11 20 3b 5f 85 61 bc 9c d2 ac 3b 03 f6 ad 3c
       0.00244247 -0.013764708 0.00527413 0.021235472
0002f0 60 03 27 3d ec 9d ab 3c c1 e4 13 3d 27 56 22 bd
       0.040774703 0.020949326 0.03610683 -0.039632943
000300 25 45 32 bd cb a3 7c 3d 41 ee 5c 3d a5 f1 1e 3d
       -0.043522973 0.061679643 0.053938154 0.03880467
000310 7d 5e b7 bc 7f 02 f9 bc 98 88 46 bc dd 61 83 3d
       -0.022383923 -0.030396698 -0.012117527 0.0641515
000320 73 05 fb 3c 75 25 4d 3d aa 8e 84 bd 5b e1 4a 3d
       0.030642247 0.05008455 -0.064725235 0.049531322
000330 4c de e6 bc f4 f2 76 bd ef f3 5e bd 64 64 ed 3c
       -0.028182171 -0.060290292 -0.054431852 0.028978534
000340 da fe f0 3c e4 08 91 3c f5 15 05 bd 22 d3 28 bd
       0.029418398 0.017704435 -0.032491643 -0.041216977
000350 15 ea 7a bd cd 21 09 3d fe e1 06 bd bb d0 59 3c
       -0.061258394 0.0334795 -0.032930367 0.013294394
000360 c3 58 d2 3c 28 21 62 3d 28 dd de bc 92 10 82 3d
       0.02567709 0.0552074 -0.027205065 0.06350817
000370 33 56 0b bc 4c d1 ab bb 79 a9 90 bd 28 87 2f bd
       -0.008504438 -0.005243456 -0.07063574 -0.042853504
000380 29 b9 3b 3d c2 ae 81 3c cc 97 2b bd 0c 71 29 3c
       0.04583088 0.015830401 -0.04189281 0.010341894
000390 7f 5e 6e 3d 06 d2 63 3d 69 71 01 bc 13 f0 7c 3c
       0.058195587 0.055620216 -0.007900574 0.0154380975
0003a0 8c 16 06 3d 25 2e 2a 3d c5 ec 65 bd e2 3a 6c bd
       0.032736346 0.041547913 -0.056134004 -0.057673343
0003b0 a7 e4 f5 bc 34 15 72 3d f9 a9 72 3a e6 c1 9a bc
       -0.030016256 0.059102252 0.0009256895 -0.018891286
0003c0 fd ed 56 bc b8 94 b0 3c 3e 78 97 3a 34 ae 74 3d
       -0.013118264 0.02155529 0.0011556221 0.059736446
0003d0 31 b0 3c 3d 43 46 d6 bc 71 8f 47 bd 95 cc 1b 3d
       0.046066467 -0.02615655 -0.04872078 0.0380369
0003e0 cc d6 16 bd 1e c5 91 3d ed 28 9e bc 71 45 e1 bc
       -0.03682594 0.07117675 -0.019306624 -0.027498933
0003f0 53 aa 9b 3b 18 26 01 bd 08 92 e3 bd 5b 1e d4 3c
       0.004750529 -0.03153047 -0.111118376 0.02589338

fc2.bias f4 [50]
000000 c7 5f b0 3d c4 d0 c7 3c 23 8c 25 3d d3 03 59 3d
       0.08612018 0.02439154 0.040416848 0.052982163
000010 dd 9f 54 bd 2a 67 f3 3c 61 0c e4 3d ea 72 46 3c
       -0.05191027 0.029712278 0.111351736 0.012112359
000020 81 54 71 3d 43 f9 1d bd bc d6 ab 3d af f4 4c bd
       0.05891848 -0.038567793 0.08390567 -0.050038036
000030 cf cf 61 3c 2f fd 06 3e 18 fe a3 3d 3d 57 0b bd
       0.013782456 0.1318252 0.08007449 -0.034018744
000040 f1 a0 8b bc 5f 65 74 3d 6e fd 0e bd 2e e5 a5 bc
       -0.017044516 0.059666988 -0.034909658 -0.020250883
000050 15 ea 60 3b 64 c0 67 bc 31 29 67 bc 1e 3d 9b 3c
       0.0034319211 -0.014144991 -0.014108942 0.018950041
000060 00 3b d2 3d 18 4c 0a 3d b2 77 3b bd 70 a7 50 3d
       0.102651596 0.033763975 -0.045768447 0.05094093
000070 b3 a6 ff bb 01 1e f7 bc 15 c4 1c 3d a1 80 6e bd
       -0.0078018545 -0.030165674 0.038272936 -0.05822814
000080 61 d3 c5 bc 6e 77 df 3d a2 65 82 bd aa f7 f5 3d
       -0.024148645 0.10911451 -0.06367041 0.12010129
000090 c2 34 aa 3b cf 92 3d 3d ad 02 73 bd 3a 54 a6 bc
       0.0051942775 0.046282586 -0.059328724 -0.020303834
0000a0 1d c6 8e bc 2a 0a 80 3d 8c 5c 2c bd f7 e6 da bb
       -0.017428452 0.06251939 -0.042080447 -0.006680365
0000b0 ea d2 95 bd 1e bd 21 bc 54 42 a2 3b 8b 2b 1e 3d
       -0.07315619 -0.009871749 0.0049517546 0.038615745
0000c0 8c 38 da bc 37 96 fb bc
       -0.026638292 -0.030711276

fc3.weight f4 [2, 50]
000000 e8 d4 e6 3d 3b 22 5c 3b 5f 6c 6f 3d bc b8 8c 3d
       0.112710774 0.003358974 0.05845296 0.06871173
000010 1d 48 c8 bd 5f 0d 86 bd ee 37 52 3d a1 05 ee 3c
       -0.097793795 -0.06545519 0.05132287 0.029055418
000020 4d de b1 bd e9 2b ea bd dd 5c 03 be 6a 94 23 bc
       -0.08684979 -0.114341564 -0.12828393 -0.009984115
000030 bd f4 c2 bc 2a d9 8a 3d 4d 25 26 3c 1e a4 03 bd
       -0.023798341 0.06779702 0.010140729 -0.032138936
000040 0d ff 97 3d 7c ae a7 3d e7 4b dd bd bc 91 8d 3d
       0.07421694 0.08187577 -0.10805493 0.06912562
000050 bf 53 e2 3a 4b 58 ac 3b 46 94 3e 3c ca 60 13 bc
       0.001726739 0.005259549 0.011632031 -0.008995244
000060 57 f8 c7 3c 9e 94 75 bc 01 62 ac bd a4 d8 c7 3c
       0.02441041 -0.014989046 -0.0841713 0.024395294
000070 5b f6 f7 3c 7c bb 33 bb 69 b2 70 bd 2b 98 5f 3d
       0.030268839 -0.0027424982 -0.058763895 0.054588478
000080 51 62 09 bd 23 dd 67 3d 55 7e aa bd 18 1d e0 3b
       -0.033541027 0.056607377 -0.08324877 0.0068394057
000090 3e 32 fb 3c 99 7b d4 bc e7 c7 31 bd 06 27 30 bd
       0.030663606 -0.025937842 -0.043403532 -0.043005966
0000a0 7b ea ce bc ca 56 09 bc 3d 28 84 bd 98 2a 70 bd
       -0.025258293 -0.0083825085 -0.06452987 -0.05863437
0000b0 2f ea a8 bd 0c 88 01 bd a9 2b 9d 3d 0f 39 b6 3c
       -0.08247792 -0.031623885 0.07674343 0.022244005
0000c0 0c 6e 3f bd e3 66 ba bd fb 1c a2 bd a2 50 65 bd
       -0.04673581 -0.09101655 -0.07915684 -0.0559851
0000d0 d5 ca 00 be 80 d9 0c 3e 8b 6e 45 3d 4d f6 16 bd
       -0.12577374 0.13754845 0.048201125 -0.036855984
0000e0 85 2c 3f b8 32 e7 6e 3c 59 51 cc bc c5 f1 cd 3d
       -4.557941e-05 0.014581488 -0.024941133 0.100558795
0000f0 9e a8 15 be b8 1a 6e bd fe 0b e5 3c 21 03 bd 3c
       -0.14615104 -0.05813095 0.02795982 0.023072781
000100 02 e3 6e bd 17 80 06 be ba 3a 02 3e 83 28 52 3c
       -0.05832196 -0.131348 0.12717715 0.012827042
000110 88 09 41 bd c9 da 51 3d d4 77 09 3e e6 c0 e6 bd
       -0.04712823 0.05123404 0.13424617 -0.11267261
000120 81 f7 13 3d c3 c6 4b 3d 0a 52 45 bd 4c 4d c4 bc
       0.03612471 0.0497501 -0.04817394 -0.02396264
000130 8d f1 ff bc c1 8b 4c bd 95 6c 0a 3e 29 fe c6 3d
       -0.03124311 -0.049937967 0.13517983 0.09716446
000140 ec 4a d9 bc 71 c0 56 3d ba 3a 17 3e a8 73 30 bd
       -0.026524983 0.05242962 0.14768496 -0.04307905
000150 e9 f6 18 bd 16 2d ef bd 83 1d 54 3d 4d 15 85 3c
       -0.037344847 -0.11678521 0.051785957 0.016245509
000160 dd 8d 88 3d 81 f4 cd bd 91 8d 14 be 95 75 57 3d
       0.06667683 -0.10056401 -0.14507128 0.05260237
000170 f8 ad b4 3d 95 85 07 bd 31 f2 2d 3d 33 a6 3c 3d
       0.088222444 -0.033086378 0.0424673 0.046056937
000180 15 f7 eb 3d 43 ab ed 3d 26 5d a0 bd 8e dc 0d 3c
       0.115217365 0.11604931 -0.07830267 0.008658541

fc3.bias f4 [2]
000000 1e 00 9e 3e 83 70 9c be
       0.30859464 -0.3055459
